pj1/part2/model/CNNModel.pth (torch, 329286 bytes, 10 tensors)

layers.0.weight f4 [6, 1, 3, 3]
000000 77 b0 59 bd 79 04 d7 bd a5 09 31 3d 23 49 aa 3e
       -0.053146806 -0.104989 0.04322209 0.33258924
000010 37 a7 42 bd a1 2e ab 3e f4 08 84 be c7 80 d5 be
       -0.04752275 0.33434013 -0.2578808 -0.41699812
000020 1c 1f ca bd 77 74 71 3e ac 0b b5 3e 88 92 32 bd
       -0.09869215 0.23579584 0.35360467 -0.043596774
000030 90 6b 5d be 8a 8d f4 be 80 de 1c be 37 17 a4 3e
       -0.21623063 -0.47764236 -0.15319252 0.32048962
000040 3a 68 db bd 99 c9 3d 3e f2 cf 3a be b5 fe 83 3d
       -0.10713239 0.18533935 -0.18243387 0.06445066
000050 c5 25 2a 3d e0 18 0e bf bd 7b 9c 3e f9 c7 30 3e
       0.041539926 -0.55506706 0.30563155 0.17263784
000060 96 a1 0d bf a9 68 ae 3e 57 b0 a1 3e 72 54 a0 3e
       -0.55324686 0.34064224 0.3157985 0.31314427
000070 a1 5a 35 3d 08 15 9a 3e d1 03 b0 3e 15 59 41 3d
       0.044275884 0.3009417 0.34377912 0.047204096
000080 8d eb 8d 3e 09 18 79 3e e6 ce 8f be 31 98 b6 3d
       0.27718773 0.24325575 -0.28087538 0.08915747
000090 62 d9 1c be 0c 67 90 3d cf 90 ad be e4 67 e5 3e
       -0.153173 0.07050905 -0.33899543 0.44805825
0000a0 98 ee 79 be 77 ad 79 3e 0a 01 3f be 7b 79 d5 3d
       -0.24407423 0.24382578 -0.1865274 0.10423561
0000b0 74 cd 11 be 28 d4 6d be b8 a2 55 3e 12 dd a9 3e
       -0.1423853 -0.23225462 0.20862854 0.33176476
0000c0 e0 32 8b 3e 0b 44 a3 3e a7 09 33 be 15 2f ad 3e
       0.27187252 0.3188785 -0.17484151 0.33824983
0000d0 7c b9 76 bd a3 b9 9e 3e
       -0.060235485 0.31001005

layers.0.bias f4 [6]
000000 f9 aa 88 3e 0c 67 c9 bd 3a 6e f8 bc f0 02 47 be
       0.26692942 -0.09834108 -0.030325998 -0.19434714
000010 31 2d f1 bc a3 75 67 3e
       -0.029440494 0.22603469

layers.3.weight f4 [16, 6, 3, 3]
000000 73 b5 5c 3e 9f c6 7d 3e 86 80 79 3e f1 06 65 3e
       0.21553592 0.24782799 0.24365434 0.22365929
000010 c3 d8 1a 3e fa ae 49 3e 8a 01 14 3d 9a fc f4 bc
       0.1512175 0.19695655 0.03613428 -0.029905606
000020 3e 2e 2d bc bc 56 72 3e 4c b7 9d 3d 8b 58 07 3d
       -0.010570107 0.23665899 0.07700977 0.033043426
000030 65 b0 51 bd 01 76 77 3e 05 d8 a3 3e 33 90 73 3e
       -0.051193614 0.24166109 0.32000747 0.23785476
000040 1c f4 4c 3e 13 a7 91 3e ac 3c 81 3d 07 f1 55 3e
       0.20014995 0.2844778 0.063104 0.20892726
000050 a8 99 d6 3d d9 62 80 3d 1d 7b 3b 3d fb 70 dd 3d
       0.10478526 0.06268854 0.045771707 0.10812565
000060 b6 fd 00 be 63 bf e3 bd b6 7e 02 be 98 ff a9 bd
       -0.12596783 -0.111204885 -0.12743649 -0.08300704
000070 55 09 8f bd ed 68 22 3e aa c9 fc bd 1a ae 02 3e
       -0.06984202 0.15860339 -0.12343152 0.12761727
000080 90 34 92 bd 92 5e dd bd 28 0a 07 3d 8a e6 87 bd
       -0.07138932 -0.108090535 0.03296867 -0.06635769
000090 8e ae 10 3e 78 79 10 3e c2 0e 03 3e ba 37 4b 3e
       0.14129087 0.14108837 0.12798598 0.19845477
0000a0 03 62 17 3e 2e c6 ec 3c 94 8f 32 3e a6 10 7f 3e
       0.14783482 0.028903093 0.17437583 0.24908695
0000b0 b2 b3 f8 3d 8b 85 08 bd 57 3a 17 bc c4 6a b3 3d
       0.12143649 -0.03333048 -0.009230218 0.08760598
0000c0 52 44 ac 3a ab 4e 08 3d e0 89 0c bd 31 e8 2a 3c
       0.001314292 0.03327815 -0.034311175 0.010431335
0000d0 e4 8c 7e 3d 1d ad 43 bd c0 93 7f 3c 05 73 c7 bd
       0.062146083 -0.047772516 0.015599191 -0.09738735
0000e0 00 06 eb bc 00 5c 2a 39 18 1e 5c 3d 9e 31 4d bd
       -0.028689384 0.00016246736 0.053739637 -0.050096147
0000f0 12 b5 01 be 87 cb 95 bd 4e ef 2a bd f2 24 ee bd
       -0.12666729 -0.073142104 -0.041732125 -0.116281405
000100 ea 01 1d bd 70 69 31 bd 30 8f 8f bc 9a 8b b4 3d
       -0.038331904 -0.043313444 -0.017524332 0.088156894
000110 ce fb 7e bd d0 48 91 3d 00 23 d6 3a 24 f5 e6 3d
       -0.06225186 0.07093966 0.0016337335 0.112772256
000120 14 2d d5 bd 80 fc 0f bd 20 5b e9 3b 9b 55 00 be
       -0.104089886 -0.035152912 0.0071214586 -0.12532656
000130 60 ba 91 3b c0 18 cd bc 10 76 74 3c 32 8c e3 3d
       0.0044472665 -0.025036216 0.014920726 0.111107245
000140 40 9a a8 bd 3e a5 00 3e 84 50 bd bc 7c 45 a0 bd
       -0.08232546 0.12563035 -0.023109682 -0.07825753
000150 ca 1e 07 be ad 67 9f bd c4 66 c1 bd e6 b4 47 bd
       -0.13195339 -0.077834465 -0.09443429 -0.048756503
000160 20 81 05 bc 20 5d a7 bd c4 49 9e 3d de ef 46 bd
       -0.008148462 -0.08172059 0.077289134 -0.0485686
000170 f6 f4 4a bd 4a 6e 9d bd 80 a9 f0 ba 59 52 ea bd
       -0.04955002 -0.076870516 -0.0018361062 -0.11441488
000180 be 60 8a 3d 80 e6 02 bb b4 fc ad 3d 0a 7b e9 bd
       0.06756733 -0.0019973814 0.08495465 -0.11400421
000190 b4 7f 12 3d ee ff 08 bd e0 61 81 3d 40 7b 55 bd
       0.03576632 -0.0334472 0.06317496 -0.052119493
0001a0 90 bc da 3c b8 24 14 bd 54 94 df bd 6f 93 cd bd
       0.026701242 -0.03616783 -0.10916963 -0.10037886
0001b0 72 3a 71 3e c2 bf 40 3e b9 75 84 3d 62 fe 51 3e
       0.23557451 0.1882315 0.06467766 0.20507196
0001c0 78 e5 09 3e c2 8b 0f 3c db 08 22 3d 30 cf 18 3e
       0.13466442 0.008761348 0.039559226 0.14922786
0001d0 30 61 9a b9 16 4e 21 3e c2 77 8c 3c 4c 19 81 3d
       -0.0002944558 0.15752444 0.017146949 0.06303653
0001e0 4f 45 fd bd ca b5 28 3d c8 2c 6c bc 9b a2 fe bd
       -0.12366735 0.041188993 -0.014414974 -0.12433358
0001f0 c3 4a df bd b8 16 d2 3c 00 42 06 3e 0d 71 ff 3e
       -0.109029315 0.025645599 0.13111115 0.49890938
000200 43 61 b1 be 02 01 9e bb d7 e3 0f 3f db a3 4c be
       -0.34644517 -0.0048218975 0.5620703 -0.19984381
000210 d3 b9 e9 bc 44 e6 28 3f 17 45 75 be db 5f 12 3e
       -0.02853099 0.6597636 -0.23952137 0.14294378
000220 97 66 ce 3d 94 93 90 3c d4 48 94 3c a1 75 11 3e
       0.10078161 0.017648496 0.018101133 0.14205028
000230 eb fe 87 3d af 59 20 3e 6f 9f 22 3e d3 1c 0f bb
       0.066404186 0.15659212 0.15881132 -0.002183725
000240 1f a6 07 3e f1 e0 c8 bd 7d 5a cc bd e0 56 73 3d
       0.13246964 -0.09808529 -0.09978197 0.059409022
000250 28 69 d5 bd ba 8a 05 be 96 67 7c be 2c 86 25 be
       -0.104204476 -0.13041201 -0.2464889 -0.16164464
000260 29 f9 24 3e 66 46 42 be 0d e4 e3 bc 7a ee 29 be
       0.16110672 -0.18972167 -0.027818704 -0.16594878
000270 96 15 3b be fc 2a 30 bd 5c 02 c8 bd 3e 19 86 bd
       -0.18269953 -0.043009743 -0.09766075 -0.06547783
000280 21 f4 c5 bd 92 65 28 bd db 31 a8 bd 28 96 fa 3c
       -0.096657045 -0.04111249 -0.08212634 0.030589178
000290 93 f2 51 be 0e 71 48 be 0f e5 19 bc 33 e2 a0 be
       -0.20502691 -0.19574377 -0.009392991 -0.31422576
0002a0 19 63 e1 bc 32 79 db 3d 60 45 0c be b5 7d 5c be
       -0.027513074 0.107164755 -0.1369834 -0.21532328
0002b0 06 2b d8 3d 73 b9 69 be 9f e7 a7 be f6 c4 f6 bd
       0.10555081 -0.2282465 -0.327939 -0.12049286
0002c0 15 db af be 2d 87 94 be 0e 0f ad bd c4 c4 85 be
       -0.34346834 -0.2900938 -0.08450137 -0.26126683
0002d0 e2 41 63 3d 88 c2 dd 3d 83 4c 97 bb 1d 89 bb 3d
       0.055482753 0.108281195 -0.004617275 0.09157012
0002e0 38 13 8f 3e 72 7a b1 3d 78 39 28 be 6f ea 35 3e
       0.2794435 0.08665933 -0.16428173 0.1776521
0002f0 54 a9 76 bd 2c 84 78 bd 9d 16 2a 3d d3 9f 05 3e
       -0.060220078 -0.060672924 0.041525472 0.1304925
000300 18 bd 2c 3d 07 65 0a 3e 4a 5f 9c 3d 11 bb 67 bd
       0.04217252 0.13515101 0.076353624 -0.056574885
000310 e3 e5 b2 3d e9 db 0a 3e 39 44 7e bd b3 57 c1 3d
       0.08735254 0.13560452 -0.06207678 0.094405554
000320 9c a9 aa bd e6 48 84 be 80 07 30 be 23 3d 91 be
       -0.08333132 -0.25836867 -0.17190361 -0.28366956
000330 ab 44 16 be bf a9 35 3d 2f fa f8 be d1 41 cb 3b
       -0.14674632 0.044351336 -0.48628375 0.0062029143
000340 e2 6d 41 3c 69 81 af bb 3a ae 0b 3e ad 4d 52 bd
       0.011805983 -0.005356003 0.13640681 -0.05134361
000350 2a ae 93 bc 36 76 03 3e 99 cb a8 bd 67 a0 53 3d
       -0.018027384 0.12838063 -0.08241958 0.051666643
000360 18 19 1e be ec 8c f3 bd 77 d7 cb bd ef b1 af bd
       -0.1543926 -0.11892113 -0.09953206 -0.0857886
000370 2e 55 26 bd 2a 87 35 be b8 21 93 be e6 39 59 be
       -0.040608577 -0.17727342 -0.28736663 -0.21213493
000380 82 1b d2 bc 86 b9 da bc 48 c4 72 be cb 66 84 bd
       -0.025647882 -0.026699793 -0.23707688 -0.06464919
000390 6b 60 df bd b2 1a f5 3b da 82 0e bd ad a6 03 be
       -0.10907062 0.007479989 -0.03479276 -0.1285655
0003a0 fd c2 85 3d 17 10 43 be c0 57 4a bb 85 7a c0 bb
       0.06531332 -0.19049107 -0.0030875057 -0.0058739805
0003b0 17 a2 46 3d 23 c9 fa 3b 95 f5 b4 3d 5e 28 ea bc
       0.048494425 0.007653372 0.088359036 -0.028583702
0003c0 ab 83 f6 bb 8a 69 de bd 9a 2c d6 bd 3a 93 0f 3e
       -0.0075230203 -0.10859974 -0.10457726 0.14021006
0003d0 6d a8 14 3d cd c6 9e 3d ef 7c 48 3d 84 a0 90 bd
       0.036293436 0.07752762 0.04894727 -0.07061866
0003e0 49 9e f1 3d 7d b9 11 bd 35 1d 92 bc d4 cb ef 3d
       0.117977686 -0.035577286 -0.017836193 0.11708799
0003f0 7b bf 0c be 26 40 de bc 87 b0 ad 3c fa a2 f5 bd
       -0.13744919 -0.027130198 0.021202339 -0.11993976

layers.3.bias f4 [16]
000000 d4 ed 06 3e 4e 8d 9d 3d e3 23 d3 bb d5 9e 1f bd
       0.13176662 0.07692967 -0.006443487 -0.038969833
000010 1b d6 d9 3d c3 da d3 bd c9 49 87 bc 53 7b a3 3c
       0.106365405 -0.1034446 -0.016514676 0.019956267
000020 fe 8e 2d 3b 09 e2 e9 3d bd 52 ba bd a4 c1 69 3c
       0.0026482935 0.11420066 -0.09097812 0.014267359
000030 1e 4e 86 bd e7 b5 75 bd df 60 9e 3d 81 3f a9 3d
       -0.065578684 -0.05998793 0.077333204 0.082640655

layers.7.weight f4 [120, 576]
000000 ba 02 01 3d 53 ce 10 bd 65 10 0f bd 32 35 1f bd
       0.03149674 -0.035353016 -0.034927744 -0.03886909
000010 88 fd cd 3c c0 61 a1 bc 28 c4 6a 3c fa 72 62 3c
       0.025145307 -0.019699931 0.014328994 0.013821358
000020 2f bd e8 3b cc a1 b7 3a 10 38 ac 3a 5d cc 2a bd
       0.0071026306 0.0014010011 0.0013139267 -0.041698802
000030 3c 8d 9f 3a 29 6a e7 3b a7 e1 2b bc 01 79 3a bd
       0.0012172828 0.007062216 -0.010490811 -0.045525555
000040 b7 58 f1 3c 89 4e 52 bc af f9 23 3c 89 37 be 3b
       0.029461248 -0.012836107 0.01000826 0.00580496
000050 9c 45 17 3c 63 9b b9 3c a3 6b 39 bd 8b d0 d2 b9
       0.009232905 0.022657102 -0.045268666 -0.00040209698
000060 f3 fa 09 bd 91 b5 55 bc 24 da bc bc 43 66 13 3c
       -0.03368659 -0.013043777 -0.023053236 0.008996549
000070 0c f6 5a 3c 8a ee b9 3b 2d 63 b1 3c fc c6 25 bd
       0.013364326 0.005674188 0.021653736 -0.04047297
000080 67 02 e9 3b a7 48 7b 3c a7 a0 a6 bb 80 70 86 bc
       0.007110882 0.015337146 -0.005085069 -0.016411066
000090 33 a7 e0 bc 3b c8 28 bd 4c 8c 56 3c 8d f7 24 3d
       -0.027423477 -0.04120658 0.013094973 0.040275145
0000a0 00 ac ff bb 00 a2 91 3b 40 42 12 3b 64 e7 3b 3c
       -0.0078024864 0.0044443607 0.002231732 0.011468742
0000b0 8b b3 d4 bc d1 ee 22 3d 69 0b 12 3d d8 82 b1 bb
       -0.025964519 0.039778534 0.035655413 -0.005417209
0000c0 db 43 b7 bc f4 cc 05 bc a6 77 d2 3c 75 5d 18 3d
       -0.022371223 -0.00816654 0.025691818 0.037198503
0000d0 39 53 15 3d e0 20 19 bd 42 54 16 bd cc ad 52 bc
       0.03645632 -0.037384868 -0.03670145 -0.012858819
0000e0 6c 3e 09 bc 38 1d 80 bc 84 ba 03 bd 7c bf 1c bd
       -0.008376699 -0.015638933 -0.032160297 -0.03826855
0000f0 1e 3e dd 3c e1 70 13 3d bc f1 3d bc 78 9a f7 bb
       0.027007159 0.03599632 -0.0115932785 -0.007556256
000100 3a 4b cd 3c 48 0b 12 bd 90 e1 51 bb 56 7c b6 bc
       0.025060285 -0.03565529 -0.0032025315 -0.022276085
000110 0e 01 b0 3c a9 72 17 3d f8 ca a3 bb 30 d0 7f 3b
       0.021484878 0.036974583 -0.004998561 0.0039034002
000120 85 0c 54 3c e0 ec a7 bc 42 6b 48 bd d0 0a 4a 3b
       0.012942438 -0.020498693 -0.048930414 0.0030829199
000130 e5 93 d2 bb f4 b4 a0 3c 14 e6 cb bc bf 8e af 3c
       -0.006426322 0.019617535 -0.024889983 0.021430371
000140 3d 55 a0 bc 1e e2 ac bc b4 35 d1 bc 80 c0 8a bb
       -0.019571895 -0.021103915 -0.025538303 -0.0042343736
000150 68 26 d3 3c 0e 93 9b 3c e6 cb 99 bc 77 e5 19 3c
       0.02577515 0.01899102 -0.018773984 0.009393088
000160 e8 15 cb 3c 32 9d 9c 3c 98 d8 ce bc 68 85 3f 3c
       0.02479072 0.019117925 -0.025249764 0.011689521
000170 75 22 1d bd 0f 84 e7 bc 7d 38 c0 3c b0 bf 67 3c
       -0.03836294 -0.028261213 0.023464436 0.014144823
000180 d3 61 ab bb 44 ac 20 bd 74 24 14 bb 0a 22 cb 3c
       -0.0052301674 -0.039226785 -0.0022604736 0.024796505
000190 b1 b0 f1 bc 22 c2 1e bb 96 cf 28 bd 36 d3 3e bd
       -0.029503198 -0.00242246 -0.041213594 -0.046588145
0001a0 77 82 f3 bc 50 96 9a bc f2 ea 47 bd 07 8b e5 3c
       -0.029725296 -0.018870503 -0.048808046 0.028020395
0001b0 83 3e 16 bc 71 8d 37 bd 23 b8 3a 3c cd a7 ee 3c
       -0.009170177 -0.044812623 0.011396441 0.029132748
0001c0 cd db b4 bc cc 5a 6b 3c 68 92 a7 bc d2 4d 48 bd
       -0.022077465 0.014364909 -0.020455554 -0.04890234
0001d0 a7 b7 f6 3a 34 9a 41 bd bd 6f 4b bd 0c f5 8a 3b
       0.0018823043 -0.0472662 -0.04966711 0.0042406376
0001e0 0a 58 b3 3c f1 f3 ab bc cb 5d bf bb 00 b3 2e bd
       0.021892566 -0.020990344 -0.0058400384 -0.042651176
0001f0 bf ec d8 bc 07 27 a7 bc ee 5d 07 bd ca db b3 bc
       -0.026480077 -0.020404352 -0.033048563 -0.02195539
000200 d8 cb 85 bb 94 1d ae bc b3 c6 fd bc 3a 15 86 ba
       -0.004083138 -0.021254338 -0.030978536 -0.0010229715
000210 23 e0 bc bc 86 e2 40 bd da 94 1f bc 67 35 e7 bc
       -0.023056095 -0.04709103 -0.009740079 -0.028223706
000220 cf a9 b8 3c f0 c0 97 3c 6a e7 af 3c b2 9b 00 bd
       0.022541909 0.018524617 0.021472652 -0.031398483
000230 70 d0 46 bd 4d 80 5d bb ef ac 00 3c 31 fa c7 3c
       -0.048538625 -0.0033798397 0.007853731 0.024411293
000240 ee a3 a8 3b 51 93 78 3c bc 28 e1 bb 42 9b ef 3c
       0.005146495 0.015171842 -0.006871311 0.029248837
000250 38 6f 20 bd fc 84 a1 3c 19 fb 6e bc 4d b7 d8 3c
       -0.039168566 0.019716732 -0.0145862335 0.026454592
000260 b8 31 24 bd 23 2c 56 b9 6a 6d 13 3c 1c 1e a5 bc
       -0.040086478 -0.00020425073 0.008998254 -0.020155959
000270 c2 51 19 bd 80 66 2c 3c d7 e5 46 bd 0f 6c b3 bb
       -0.037431486 0.010522485 -0.048559036 -0.005475528
000280 9e 0d 40 bd 03 79 35 bc c7 28 d3 bc 37 24 a0 3c
       -0.046887986 -0.011076215 -0.02577628 0.019548519
000290 b3 27 9b 3b 28 b7 0a bc aa 06 ad 3c 00 c4 2d bd
       0.004734957 -0.008466519 0.021121342 -0.04242325
0002a0 bc ee ba bc f0 fd 2c 3c 6d d5 3d bd ca 29 d0 3c
       -0.022818916 0.01055859 -0.046346117 0.025410552
0002b0 07 57 90 3c 90 1a 1f bd 28 b5 3d bd 2c d0 ca bc
       0.017619623 -0.03884369 -0.046315342 -0.024757467
0002c0 d6 26 2e bc 3a 03 6e bc df ab d4 3c b1 62 e6 bc
       -0.010629376 -0.014527136 0.02596086 -0.028123232
0002d0 30 82 30 bc 37 bd 7f 3c b6 7c 30 bc 2e 03 93 3b
       -0.010773227 0.015609077 -0.010771921 0.004486463
0002e0 42 b4 80 ba 0a d7 ff bb 0c cf e9 3c 37 ad 8f bc
       -0.0009819346 -0.007807617 0.02854111 -0.01753865
0002f0 24 cc a9 bc 1e 87 db 3c 71 82 b3 3c 9e 5f bf bc
       -0.020727225 0.026797827 0.021912785 -0.023361024
000300 47 d2 be 3b 4c 7a b4 bc 05 dc 55 3c 6d 53 f4 bc
       0.005823407 -0.022030972 0.013052945 -0.029824937
000310 29 47 27 bd 05 1d f4 bc f2 8d 96 3b 61 02 87 3c
       -0.040839348 -0.029798994 0.004594558 0.016480627
000320 38 13 69 bc d2 86 d8 bc 63 eb 1a bc 98 ab 69 3c
       -0.0142257735 -0.026431475 -0.009455535 0.014262103
000330 76 c1 1e bd d8 b8 0b 3c 81 38 7c 3c 9c 0a 49 bd
       -0.038758717 0.008527957 0.015394331 -0.049082384
000340 05 3a a6 bc 8c 18 19 bd ce e8 cd bb 2f 7e 75 bb
       -0.020291338 -0.037376925 -0.006283856 -0.0037459244
000350 79 e5 0c 3c bd 00 bc 3c 1d 02 2d ba b9 39 4d bd
       0.008599632 0.02294957 -0.0006599741 -0.050103877
000360 40 e9 4b bb 18 d3 de 3c 20 15 88 bc 20 09 bf 3c
       -0.003111437 0.027200267 -0.016611636 0.02331978
000370 61 f4 e4 bc 21 3c f6 3c 40 c3 ed 3c 4a 7f 45 bc
       -0.02794856 0.030057969 0.029023767 -0.012054274
000380 dc d8 4a bb e1 6f 26 bd 90 2d 03 bb 2b 0b 3e bd
       -0.0030952012 -0.04063404 -0.002001617 -0.04639737
000390 42 61 a2 bc 88 a7 5d 3b 53 0c 96 3c 3f a3 b0 bb
       -0.019821767 0.003382178 0.018316424 -0.005390554
0003a0 0e c3 b1 bc b6 c0 2e bd f0 34 42 bd d0 4f 1b bc
       -0.021699455 -0.042664252 -0.047413766 -0.009479478
0003b0 ca 7c 9e 3c 6b 20 91 bc 26 5d 23 bc de b9 3d 3c
       0.019346613 -0.017715653 -0.009970939 0.011579959
0003c0 1e 94 cd bc 25 78 f1 bc 57 17 84 bb b4 88 ec bc
       -0.025095042 -0.029476235 -0.0040311026 -0.028873779
0003d0 64 fa 00 bd f3 bc 82 bc 36 38 9c bc 60 52 bf ba
       -0.03148879 -0.015959239 -0.019069772 -0.0014596693
0003e0 fb ad b3 ba 4d b1 bf bb a8 43 ee 3c d8 1b 27 bd
       -0.0013708466 -0.0058499933 0.029084995 -0.04079804
0003f0 83 dd 33 bd 1a 18 fd bc 15 c9 b0 3c bb cb 17 bd
       -0.043912422 -0.030895282 0.021580258 -0.037059527

layers.7.bias f4 [120]
000000 41 00 1d bd 1a d0 b2 3b 5d af 8b bc 60 10 8f 3c
       -0.03833032 0.0054569365 -0.017051393 0.017463863
000010 bb 2d be bb df 0a 35 38 ff a4 dc bc b7 23 84 3d
       -0.0058037913 4.3163887e-05 -0.026934145 0.064521246
000020 cb bf a6 bc 8a 93 33 bc a5 08 41 bc 20 d8 f9 3c
       -0.020355126 -0.010960469 -0.011781846 0.030498564
000030 c0 c8 65 bb 6f 0f ab 3c 6f b1 1d bc 64 10 0f bd
       -0.0035062283 0.020881383 -0.009624823 -0.03492774
000040 f8 8a 19 bd 66 d1 94 3c b6 ca 2b bd e6 be 06 bb
       -0.037486047 0.018166255 -0.041941367 -0.0020560562
000050 b1 47 17 ba 70 ca 45 bc db 9f fb bb 8f 79 68 3c
       -0.0005770876 -0.012072191 -0.0076789684 0.014189138
000060 05 86 87 3a 69 c2 6a bc 5c f3 ee bc 14 11 b6 3b
       0.0010339624 -0.014328578 -0.029168777 0.005556235
000070 ce 95 ae 3b ac d5 03 3c 77 2c 28 3d 3e d3 58 bb
       0.0053279167 0.008046549 0.04105803 -0.0033084895
000080 c8 60 27 bd 5e 62 02 bd d5 5b 1f 3d 98 64 4e bd
       -0.040863782 -0.03183209 0.038905937 -0.050388902
000090 56 86 ee 3c 4f fb 45 bc 71 1a a9 3c 17 16 b9 39
       0.02911679 -0.012083842 0.020642491 0.00035302408
0000a0 c7 2a b9 bc 90 34 6d 3c ff ff d3 3c 10 e5 06 3c
       -0.022603406 0.014477864 0.025878904 0.008233324
0000b0 df 59 24 3c 9e 2a ae bc 4e 52 39 bd d0 4f 3c 3d
       0.010031193 -0.021260556 -0.045244507 0.045974553
0000c0 dd a4 a8 3c d5 a0 cb 3c 93 92 03 bd 42 79 1f bd
       0.020586425 0.024856964 -0.032122206 -0.038934
0000d0 29 c6 3b bb 57 6e bc bc fd c6 85 3b 2a 61 0c 3c
       -0.0028652048 -0.023001833 0.004082559 0.008568088
0000e0 dc 80 14 bd cd 2b bf 3c d0 4b 91 3c 47 5d 2c b9
       -0.036255702 0.023336316 0.017736346 -0.00016437947
0000f0 5f c2 25 3c bb a8 b6 3c dc cc 29 bd b4 d2 18 3c
       0.010117142 0.022297254 -0.041455135 0.009327579
000100 43 73 dc 3c 32 22 c5 bc cd 52 ed bb 39 49 92 bb
       0.02691043 -0.024064157 -0.0072425366 -0.004464295
000110 13 0a 1a 3d da 89 b5 3c 11 bb 54 bb 06 a9 3a bb
       0.037607264 0.02216046 -0.0032460133 -0.0028482093
000120 90 a5 2d bd b2 06 c0 bc 0e 72 3d 3d bd 53 e6 bc
       -0.04239422 -0.023440693 0.04625135 -0.028116101
000130 dd 23 00 3b e0 bf b0 3c c5 75 16 3c 51 fb fa 3c
       0.0019552626 0.021575868 0.009183352 0.030637415
000140 45 ba 94 bc b5 98 7e bc 8a ae fb 3c 81 ae ac bc
       -0.018155226 -0.015539338 0.030722875 -0.021079304
000150 99 42 2d 3d 31 af 8b 3d b3 3c c7 bb 30 c5 b5 3c
       0.04229984 0.068205245 -0.006080234 0.022188753
000160 7a 00 05 3d 6c c8 38 3d ad 7c d3 3c 40 f2 dd bb
       0.032471158 0.045113012 0.025816286 -0.006773263
000170 26 5f aa bc fc c8 25 3b 74 c8 08 3d 0d 46 53 3a
       -0.020797323 0.0025296798 0.033394292 0.00080594496
000180 50 65 0d 3d a4 93 1d bc f8 ff f5 bb 9d ab bf 3c
       0.034520447 -0.00961772 -0.0075073205 0.023397261
000190 95 31 0f bd ce 01 47 3c f6 34 d9 3c 65 94 7f bb
       -0.034959394 0.012146426 0.026514512 -0.0038998362
0001a0 57 16 07 bd ed 9b 15 3d 78 45 5c bc 34 04 b6 bb
       -0.03298029 0.036525656 -0.013444297 -0.0055547003
0001b0 06 6f d0 bc 4f 35 72 3d 4c c9 af 3c 9c f5 c3 bc
       -0.025443565 0.05913287 0.02145829 -0.023920827
0001c0 65 12 84 bc 0e 4f 75 bc f0 94 3e 3c ef 04 00 3d
       -0.016122052 -0.014972461 0.011632189 0.031254705
0001d0 c8 b0 ad bc 84 b6 bb 3b 61 c5 88 3c 92 eb 9e bc
       -0.02120246 0.0057285447 0.01669568 -0.019399438

layers.9.weight f4 [84, 120]
000000 bd 29 be bc 7c 6f 87 3d bf be c4 3d e0 41 5e bc
       -0.023213262 0.06613061 0.096066944 -0.0135655105
000010 78 b8 d1 3d 3e c1 ba bd 46 c2 7e bc 5d e8 a2 3d
       0.10240263 -0.09118889 -0.015549248 0.07954476
000020 0c 5e c2 bb dc 41 1e 3d 82 98 d3 bc 16 47 16 3b
       -0.0059316214 0.038637027 -0.025829557 0.0022930554
000030 f8 ea 86 3c 35 47 1b 3e 3e 66 81 bd 6d 59 94 bd
       0.016469464 0.15163882 -0.06318329 -0.07243619
000040 e3 9a c3 3b 7f 63 c9 bc 59 17 07 3c df 35 9a bb
       0.0059693917 -0.024583576 0.008245313 -0.004706129
000050 09 6f 36 3e e6 c0 91 3d cc fc 73 bc d7 be ee bc
       0.17815794 0.071168706 -0.014891814 -0.029143734
000060 70 c6 ab bb fc aa 9b bd ae 0f f0 3c 10 9d dd 3c
       -0.0052421615 -0.07600972 0.029304352 0.027052432
000070 31 4e 9d 3b 54 84 9d bd 00 b6 27 3a 13 99 2e be
       0.004800581 -0.07691255 0.00063976645 -0.1705058
000080 70 3a ef 3c 33 de 8d 3d 34 3f 8a bd e7 ea 5d 3b
       0.02920267 0.06927147 -0.06750336 0.0033861937
000090 91 b5 b3 3d b0 5a 95 3d 93 6d 64 3d 09 c0 5b 3d
       0.087748654 0.07292688 0.05576856 0.053649936
0000a0 06 f8 22 bd d1 b8 36 bd a1 67 98 3d 49 64 b8 bd
       -0.039787315 -0.04460985 0.07441641 -0.09003503
0000b0 32 ab aa 3d 13 c2 06 3d bd 87 6e bd 70 46 cc bd
       0.08333434 0.032899927 -0.05823492 -0.099743724
0000c0 bc 5d 71 3c 6e bb 41 bd 08 f8 e7 bd 5f 7f 26 bd
       0.014731821 -0.047297888 -0.11326605 -0.040648814
0000d0 09 b2 cf 3d a0 a4 de 3c bf 2d c1 3d e6 0d 2e bd
       0.101413794 0.027178109 0.094325535 -0.042493723
0000e0 de 5e ac bd 9d 31 4f 3e 04 c3 c3 bb 2f 25 54 bc
       -0.08416532 0.2023377 -0.0059741754 -0.012948318
0000f0 87 70 f4 3d 75 7c 0d 3e 3b 35 20 bd 78 4c 4e bc
       0.119355254 0.13817008 -0.039113265 -0.012591474
000100 91 cf 83 bd 73 5f 4a 3d ce 5a 8b bd 9c 2a 4a 3d
       -0.064360745 0.049407434 -0.06804429 0.04935704
000110 19 50 cf bc 2c 94 83 3d 69 af 8e bd 62 2e 90 bd
       -0.025306748 0.06424746 -0.069670506 -0.07040097
000120 18 fb 7d 3d 3c 7f 55 bd 94 8f cb 3d 9b 28 a7 bd
       0.06200704 -0.052123293 0.09939495 -0.08162042
000130 04 58 72 3d 81 26 38 bd 1c 1f 0e bd 00 5b a5 3d
       0.05916597 -0.044958595 -0.034697637 0.080739975
000140 09 ec 29 3e b2 22 fa bd 95 95 46 bd 03 31 cc 3d
       0.16593947 -0.12213649 -0.048482496 0.09970286
000150 c8 fa 75 bd 6a 40 5a bc 93 18 9e 3d 2e 76 df 3d
       -0.060053617 -0.013321022 0.07719531 0.10911213
000160 b4 5e 85 3c 3f 34 cd bd 0b b3 b5 bd 72 c6 90 bd
       0.01628051 -0.10019731 -0.0887204 -0.070691004
000170 5c f9 95 bd 08 c4 11 be c8 df 29 3d e5 a0 d5 bd
       -0.07322952 -0.14234936 0.04147318 -0.10431079
000180 f4 f3 cc bd 70 d6 7e 3c 84 b6 83 bd e1 89 5d bd
       -0.10007468 0.015554056 -0.064312965 -0.05408657
000190 70 87 4c 3c c0 d5 35 3c 5c 78 31 be fa 50 0f 3d
       0.012483463 0.011098325 -0.1733107 0.034989335
0001a0 92 74 18 3c 23 ac 0a bd 59 25 76 3d d3 51 7d bd
       0.009305136 -0.03385557 0.06009421 -0.06184561
0001b0 da 58 e6 bc 3d 9d 51 bd c9 e6 8d 3c 48 9d 83 3e
       -0.02811854 -0.051175345 0.017321961 0.25705934
0001c0 46 90 68 bd 50 4e e4 3c af 39 e7 3d 87 1f 66 3e
       -0.056778215 0.027869374 0.11290299 0.22472964
0001d0 6d 61 82 3d de bd 13 be 7c 30 7e 3d 67 4c 12 bd
       0.06366239 -0.14427897 0.062057957 -0.035717394
0001e0 e4 84 40 bd a4 5e 3e bd a4 1a c7 bb 90 eb 82 bd
       -0.047001734 -0.046476975 -0.006076174 -0.06392586
0001f0 8b 88 82 bd 05 f1 42 3e d1 93 f6 3b 4c 61 73 3d
       -0.063737 0.19037254 0.0075249453 0.05941896
000200 79 bd bf bb 94 53 0a bd 04 84 de bc 75 5e d2 bd
       -0.0058514443 -0.033771113 -0.02716256 -0.102719225
000210 e0 ed 5d bc 88 54 4d 3d 15 f6 97 bd cb 07 8f 3d
       -0.013545483 0.050129443 -0.07419983 0.06983908
000220 2a 38 5f 3b c9 da c3 bd a5 91 cb bd 53 c9 84 3d
       0.0034060576 -0.09563214 -0.09939889 0.06483712
000230 0e 34 00 3e 5c 17 a9 3c 0b 9a 2d 3e ef f2 8f bd
       0.12519857 0.020641021 0.16953294 -0.07028758
000240 3b 6b 77 3d 10 fd 45 3d a5 c6 01 3d c3 3e 2f 3d
       0.060404997 0.048337042 0.031683583 0.042784464
000250 3d 48 c2 3c 4e 95 48 bd 16 d4 9f 3d 78 ef ee 3d
       0.023716087 -0.048970513 0.07804124 0.11666769
000260 1a ce 96 3d 95 73 a0 3d 17 0c 40 3e 96 90 5a 3d
       0.073635295 0.078345455 0.18754612 0.053360544
000270 c8 38 2d 3b 1d a9 86 3d 4e ab 9b 3d cf 3f 9a bd
       0.002643155 0.065752245 0.07601033 -0.07531702
000280 6f 25 af bd 96 8a b8 bd 1f e3 00 bb 1e 29 b8 bb
       -0.08552062 -0.09010808 -0.0019666625 -0.005620136
000290 a0 3b 37 be 60 72 86 bd 64 4d 11 3d aa b1 8e bd
       -0.17893839 -0.06564784 0.035474196 -0.069674805
0002a0 a3 10 05 3e e5 cf 48 be b3 4a fc bb 06 90 d2 bd
       0.12994628 -0.19610555 -0.0076993345 -0.102813765
0002b0 d7 48 db 3d 27 de 62 bc f0 08 d4 3d b6 8c 7d 3b
       0.107072525 -0.013846911 0.10353267 0.0038688607
0002c0 de 6c 3a bd 7d de 0d be b0 74 6d 3d 59 88 4a bd
       -0.04551398 -0.13854404 0.05797261 -0.049446438
0002d0 02 32 a1 3d aa e1 91 bc 5d 5c 9f 3d a8 af f8 3c
       0.07870866 -0.0178078 0.07781289 0.030357197
0002e0 bb 88 c0 3c 88 bd d1 3d e8 f4 eb bc 61 df 1b 3e
       0.023502698 0.10241228 -0.028803304 0.15221931
0002f0 27 28 80 3d fc 31 88 bd 8d 42 2a 3e 03 96 3a 3e
       0.062576585 -0.06650159 0.1662695 0.18221287
000300 a8 46 36 bc c3 16 9c bd 30 f2 ae 3d f7 b1 6a 3e
       -0.011125244 -0.07621529 0.08542287 0.2291945
000310 76 08 7d bd 75 07 9b 3d 4d 5d d6 bc f3 0d 36 3d
       -0.061775647 0.07569782 -0.026167536 0.044446897
000320 af 02 1d be ad 85 e7 bd e0 55 7c 3c 50 a7 5d be
       -0.15333055 -0.113047935 0.015401334 -0.21645856
000330 f3 b6 7a bd 6c 41 8d 3d 7b 5f 39 bc 51 53 85 3e
       -0.06120963 0.06897244 -0.011314268 0.26040128
000340 e0 db a1 bd 24 de b4 3c 16 8f cd bc dc 39 82 3c
       -0.07903266 0.022078581 -0.025092643 0.01589673
000350 65 84 78 3d 33 92 d7 3c 6f 99 20 bc 80 68 93 3d
       0.060673136 0.02631483 -0.009802206 0.07197666
000360 c2 8f 69 3e e7 95 ed bc f1 56 c0 bd ea 0e 93 bd
       0.22808746 -0.029002143 -0.09391583 -0.07180579
000370 d7 78 9b 3d f8 d6 52 3d ed 45 99 3d ec 13 81 bd
       0.07591408 0.05147454 0.074840404 -0.06302628
000380 8f 26 8d bd dc e2 4a 3d f9 0a 8b bc c4 3d a8 3d
       -0.0689212 0.049532756 -0.016973006 0.08214906
000390 85 af 7d bd 24 68 8e 3c df cc 16 3d e9 0c 48 be
       -0.061934967 0.017383642 0.036816474 -0.19536175
0003a0 8d 75 88 bd 8c 5a 85 3b a6 59 3f 3d 78 70 22 be
       -0.06663046 0.004069632 0.046716355 -0.15863216
0003b0 80 c5 23 bd a8 b5 2b bd 77 bf b5 3c 4d bf 13 3d
       -0.039983273 -0.041921288 0.022186024 0.03607111
0003c0 04 11 a9 3d 05 2a 27 3e 29 61 46 3d c5 2b cf 3b
       0.082551986 0.16324623 0.048432503 0.0063223564
0003d0 c3 30 15 3d 05 f1 45 3c 4f 03 60 3d b1 9f 3a bc
       0.036423456 0.012081389 0.054690655 -0.011390612
0003e0 49 55 ad bd 1f e5 a9 3d 1d e0 7d be bc 81 2b 3e
       -0.084635325 0.082956545 -0.24792524 0.16748708
0003f0 9c d3 b4 3d 19 fe 0c 3d f6 8b 52 3d 0a f5 8d 3d
       0.08829424 0.034422014 0.05140301 0.06931503

layers.9.bias f4 [84]
000000 ab 0c ae 3d ca de 82 3d cb 67 91 3d e6 0c 32 3d
       0.0849851 0.0639015 0.07099875 0.043469332
000010 b0 f5 7b bc cc a5 e0 bc 79 8f 26 3d 60 3c ce bb
       -0.015378401 -0.027422808 0.04066417 -0.0062938184
000020 44 33 8b bd 44 13 9a bd 41 2f c7 bc f6 cf 90 bc
       -0.067968875 -0.07523206 -0.024314525 -0.017677289
000030 fd a2 37 bb 30 01 9a bd 51 5c 47 3d f5 67 2f 3d
       -0.0028020733 -0.07519758 0.048672024 0.04282375
000040 2e dd c2 bc bf 44 9a 3b 34 29 ad bc 7b 48 6c bb
       -0.023787107 0.004707902 -0.021137811 -0.0036053944
000050 20 88 77 bc 10 c3 9f bb 90 d0 03 bd 83 f2 a6 bd
       -0.015108138 -0.004875548 -0.032181323 -0.08151724
000060 cf b9 34 bc be 6f 01 3d 9e 57 a9 3c 4e 23 32 3c
       -0.011030628 0.031600706 0.020671662 0.010872675
000070 60 07 08 3e 91 66 9f bc 0f d0 c6 bd 81 7f 7e 3d
       0.13284063 -0.019458087 -0.09707653 0.062133316
000080 d1 04 c6 bc 7b b7 80 bc ac b4 89 3d bf 06 8d 3c
       -0.024172219 -0.01571249 0.067239136 0.01721513
000090 60 93 82 bd 0b af 82 3d 50 e7 6c 3c 06 dd 5f bd
       -0.06375766 0.06381043 0.014459446 -0.054654144
0000a0 87 0b a3 bd 11 bc 41 3d a3 44 9e 3d 69 08 00 bc
       -0.07961183 0.047298495 0.07727935 -0.007814505
0000b0 2f b4 2c bd 11 56 09 3c 37 aa ea bc 0d 87 20 3c
       -0.042164024 0.008382336 -0.028645618 0.009797824
0000c0 b6 b2 95 3d 7c 5b 40 3b 77 a2 dd bc 6c 16 b0 3c
       0.07309477 0.0029351404 -0.027055008 0.021495067
0000d0 ca ce 0b bd 3a 76 94 bd 1c 6e 8c bd 66 4a a5 bc
       -0.034132756 -0.072491124 -0.06856939 -0.020177078
0000e0 84 11 0e bd f5 ab a6 3c ce 64 aa 3d af fd 09 bc
       -0.034684673 0.020345667 0.08320008 -0.008422299
0000f0 c9 65 65 bd b7 e7 4a bd ca 5c c3 3d 49 4b 38 bd
       -0.056005273 -0.049537387 0.095391825 -0.044993673
000100 5c 3b 8c 3b 69 4a 0e bd 67 95 9a 3c 87 c8 68 bd
       0.004279537 -0.03473893 0.018870069 -0.056831863
000110 b5 89 83 bd 1b d9 51 bd c4 37 a9 3d d8 3e fa bc
       -0.0642275 -0.05123244 0.082625896 -0.030547544
000120 3b 8e a3 b9 94 a6 0d bd 4a d6 09 bd 23 ae 1e 3c
       -0.00031195753 -0.03458269 -0.033651628 0.009685072
000130 5b 53 e9 3d c1 c2 a4 3d a6 16 1a 3d 24 65 86 3c
       0.11392852 0.08044959 0.037619255 0.01640565
000140 4e c6 95 bc 34 8f 0c 3d 71 7b 41 3d 69 44 30 bd
       -0.018283036 0.034316257 0.047236864 -0.04303399

layers.11.weight f4 [12, 84]
000000 6b ca 32 3e 62 e8 24 be 5f ff bd 3e bf 98 8f bd
       0.17460029 -0.16104272 0.37108895 -0.07011556
000010 bc 81 aa 3c 70 0f 59 3c 8a 08 09 be 66 f4 1e 3e
       0.020813815 0.0132483095 -0.13382164 0.15522918
000020 69 ac b8 bc 9e 78 85 3d ca 40 ee 3c 7d 84 3d be
       -0.02254315 0.065171465 0.029083628 -0.18507572
000030 91 58 85 bd b1 b8 b3 3d 76 93 36 be 8f aa 0c 3e
       -0.06511033 0.087754615 -0.1782969 0.13736938
000040 a9 43 9d bd 35 b9 8e 3d 64 dd f9 3d a3 92 50 3b
       -0.07678921 0.06968919 0.1220043 0.0031825684
000050 22 58 1c bd e5 e3 76 bd f3 0d b0 bd b9 b3 ab bc
       -0.038169987 -0.06027593 -0.085964106 -0.020959722
000060 5c fe 2a bd 36 5c da bd 51 66 5d 3d ad 41 91 3c
       -0.041746482 -0.10662119 0.054052655 0.017731512
000070 60 38 1c 3e 92 02 58 bd 7e 86 97 3c 9c 89 2f bd
       0.1525588 -0.052736826 0.018496748 -0.042855844
000080 f7 0f 8e 3c 06 e8 49 3d 24 88 2a 3e a2 86 ed bd
       0.017341597 0.04929354 0.16653496 -0.11597945
000090 50 3f b4 bd dc ab 2c be 97 38 83 3d a5 98 a6 bd
       -0.088011384 -0.16862434 0.06407278 -0.081345834
0000a0 ed d6 49 3d f2 0a 0e 3e 80 cf 69 bd 7c 53 0b 3d
       0.049277235 0.13871363 -0.057082653 0.034015164
0000b0 0a 8b 06 3e e1 94 34 be 80 7c f7 bc a8 6e 1c 3e
       0.13138977 -0.17634918 -0.030210733 0.15276587
0000c0 1f 7a cd 3c 71 c2 8c bc fe 9f 29 3e f2 58 ca bd
       0.025082646 -0.01718256 0.16564938 -0.09880246
0000d0 9f a1 20 be 92 f0 6b bd 80 65 97 bd c3 1a 05 be
       -0.15686654 -0.057602473 -0.073924065 -0.1299849
0000e0 4a 40 0c 3e 7e 57 66 be 16 32 f8 3d 4e 66 c2 bd
       0.136964 -0.22494313 0.12118928 -0.09492169
0000f0 7d e6 6b 3e 4d 0d 3f 3d 2b 3a 38 3e 40 ec 9e bd
       0.23037143 0.046643544 0.1799094 -0.07759905
000100 78 68 c3 bd dd e4 b4 3d 88 b6 41 3d f9 e8 c6 bd
       -0.0954141 0.08832715 0.047293216 -0.09712405
000110 8a 13 98 3d 6d 31 c2 bd c0 52 e9 bc 5b df e3 3d
       0.07425602 -0.094820835 -0.028481841 0.11126586
000120 3d f9 3b bc 87 1a b2 3d ab a8 fc 3d 93 19 d4 3d
       -0.011472997 0.08696466 0.12336858 0.103564404
000130 a5 97 83 3d 75 d5 0e 3e bc f2 2e 3e 69 7e 95 3d
       0.06425408 0.13948615 0.17084783 0.072995014
000140 e5 a3 62 be fb 56 97 3c b7 87 9f bd dc 98 cb 3d
       -0.22132833 0.018474093 -0.077895574 0.09941265
000150 07 66 21 3e 3a 0c ef 3d b7 50 73 3d c3 ba bf bd
       0.15761577 0.11672254 0.059403148 -0.09361794
000160 d0 89 bd 3b 56 35 99 bd 5c 84 13 3d 09 41 38 be
       0.005784251 -0.07480876 0.0360149 -0.17993559
000170 4e c6 62 3c d0 78 99 bb 81 4b d7 bd c5 2c 2f bd
       0.013841225 -0.0046835914 -0.10512448 -0.042767305
000180 02 54 65 3e f8 45 85 3c 08 15 89 bd da d3 21 3e
       0.22395328 0.016268715 -0.066934645 0.15803471
000190 54 4b 57 bc 1e f9 03 bd ee 13 28 3e 1f 34 1d 3c
       -0.013140518 -0.03222 0.16413853 0.009594946
0001a0 3d ab b7 bd b8 6b 22 bd 67 9e 4e bd 94 30 24 3d
       -0.08968208 -0.03965351 -0.050444033 0.04008539
0001b0 02 5a b4 bd f4 53 0f be b1 f3 20 3e 86 a1 0e 3e
       -0.0880623 -0.1399687 0.15717961 0.13928804
0001c0 5a b5 ed bd 88 4c 93 bd 75 4c 9d bd b7 f1 6a 3e
       -0.11606856 -0.071923316 -0.07680599 0.2294377
0001d0 4f 89 b3 bd 5a 4b db bc c4 01 7d be 38 06 52 be
       -0.08766424 -0.026769329 -0.24707705 -0.20510185
0001e0 ea 90 d9 bd 94 90 f9 3c 48 d8 ae be c7 57 d4 bd
       -0.10623343 0.030464448 -0.34149384 -0.10368305
0001f0 8b 8e 6d be d5 5b d0 3d 16 4d bb 3d be bd a0 3d
       -0.23198907 0.101737656 0.09145562 0.078486905
000200 fd b0 3c be 77 67 2c bd df f1 43 be 22 d8 1c bd
       -0.1842689 -0.04209086 -0.19135235 -0.038292058
000210 20 70 a6 3d e4 4a 7b be b5 ac 6a ba bc 80 52 3e
       0.08126855 -0.24540287 -0.0008952127 0.20556921
000220 43 e4 7a 3d 47 d3 ae bd f9 05 e2 ba 18 21 56 be
       0.061252844 -0.08536392 -0.0017244212 -0.20911062
000230 66 86 ec 3d f7 93 16 bc f5 89 20 3e 89 1c 0c 3e
       0.11549072 -0.009190551 0.15677626 0.1368276
000240 99 05 8f bd dd fa 52 3e 64 ef 3d bd 79 93 8f bc
       -0.069834895 0.20603509 -0.04637088 -0.017526375
000250 d7 26 80 be d4 34 2c 3e ef 89 a7 3d 45 13 28 3d
       -0.25029632 0.16817027 0.081806056 0.041034
000260 64 0f 94 3d f8 cc c9 3d d9 1c 54 bd b0 a8 87 be
       0.07229498 0.09853548 -0.051785324 -0.26495886
000270 d7 eb 8c be 13 90 23 3c 25 2b 09 bc 53 b4 e8 3c
       -0.27523682 0.00998308 -0.008372103 0.028406298
000280 7b d0 2c 3d 9d 8e 3c 3d ee a1 8b bc 72 ec ba bc
       0.04219101 0.046034444 -0.017044988 -0.022817824
000290 16 41 30 be bb 42 bd 3d 08 2a 7e bd ee 39 7b 3d
       -0.17212328 0.092412435 -0.062051803 0.061334543
0002a0 2f 51 8f 3d 75 d5 68 3d 9c d2 13 3e de 4b a2 bd
       0.069979064 0.056844193 0.1443581 -0.07924627
0002b0 32 28 d5 bd bc 79 f1 3c 60 ae 7a bc 98 32 52 3e
       -0.10408057 0.029476993 -0.015300363 0.20527112
0002c0 7b f8 30 bd 42 28 9a bd e2 f1 85 3d 37 bd 8c 3e
       -0.04320572 -0.0752721 0.06540276 0.2748811
0002d0 47 8d 8d bc bb 53 40 3d 6d 71 30 bd 70 38 c7 3d
       -0.01727928 0.04695485 -0.04307692 0.097275615
0002e0 c8 05 1c bd 67 4f b7 bd 05 d0 16 3e f4 34 cf bd
       -0.03809145 -0.08950692 0.1472779 -0.10117522
0002f0 ac 0d a7 3c c0 5a 1f 3c 76 88 37 be 1d 63 80 bd
       0.020392261 0.009726226 -0.1792315 -0.06268904
000300 47 02 59 be c9 b5 bf be 73 f5 89 be 44 26 cd 3d
       -0.21192275 -0.3744338 -0.26945075 0.10017064
000310 2e 82 bc 3d 2d f2 81 3d 1a c1 63 3d aa 8a 44 3e
       0.09204517 0.063450195 0.055604078 0.19193521
000320 5c 65 16 3e 35 c5 92 bc d8 e3 85 be 71 95 d1 be
       0.14687103 -0.017916301 -0.26150393 -0.40934327
000330 6f 24 d5 3d 9a 30 00 be d6 cb b6 3e da ee aa bd
       0.1040734 -0.1251854 0.3570239 -0.083463386
000340 28 5b 32 3e 58 f7 3f 3e f4 46 1b 3e 58 87 2f bc
       0.17417586 0.18746698 0.15163785 -0.010713421
000350 32 7b 01 3b 9b ec 25 3e 95 cc d4 3d 2a 1e 45 bb
       0.0019757268 0.16203539 0.103905834 -0.0030077794
000360 e3 39 53 3d bc 93 d1 bd 58 b4 25 be a2 20 7b bd
       0.051568877 -0.10233256 -0.16182077 -0.061310418
000370 a2 d5 c7 3d 9e f6 4b 3d f9 1b d8 bc 8d 13 8c be
       0.09757544 0.04979574 -0.026380526 -0.27358666
000380 75 51 92 bb db a0 00 3e 71 b6 58 bd 2c c0 30 be
       -0.004465277 0.12561361 -0.052908365 -0.17260808
000390 a6 57 47 be 74 db 49 be a0 ce 2f be b9 a5 50 bd
       -0.19467029 -0.19712621 -0.17168665 -0.050939295
0003a0 81 fe c4 3d f3 2d 24 3e 20 cd d3 bd 62 a8 34 3e
       0.09618855 0.16033153 -0.10341859 0.17642358
0003b0 c8 ee 60 3d fa 0f 13 3d 8e d1 43 3d 6a 5d 74 be
       0.05491522 0.03590391 0.04780727 -0.2386376
0003c0 7e e1 41 be 74 3a 39 bd 25 53 96 be ad d6 e9 3d
       -0.18933675 -0.04522176 -0.2936031 0.11417899
0003d0 94 4d 0d be e3 36 09 bd 78 22 03 3e 88 5e 44 3c
       -0.13799125 -0.03349961 0.12806118 0.011985429
0003e0 94 dc 37 3d 22 c5 ad bd 03 37 7b 3d 80 39 ff 3c
       0.044888094 -0.08484866 0.06133176 0.031155348
0003f0 b0 17 8c be 16 1b 1e 3d 14 44 73 be ae 89 c7 3b
       -0.27361822 0.03860005 -0.23756438 0.0060894107

layers.11.bias f4 [12]
000000 b9 3a bc 3d a5 7a 2c 3d eb 74 cb 3d 96 bb 94 3c
       0.09190888 0.04210915 0.0993441 0.018155854
000010 54 23 30 3d 41 6a c7 3d 63 e9 50 3d a5 81 b1 bd
       0.04300244 0.09737063 0.051003825 -0.08667306
000020 24 2a 6c 3d cf 52 83 bd 77 af 71 bd 54 16 d1 3d
       0.057657376 -0.06412279 -0.059005227 0.10209337
