pj1/part1/model/classify/b01.npy (npy, 1152 bytes, 1 tensors)

array f8 [128, 1]
000000 b9 0d d0 5a b9 df ca 3f c1 e8 63 42 a3 d5 d3 bf
       0.20995251592840505 -0.309914412340401
000010 7d 1d 9c 8b d0 46 b3 bf 02 4d 7b 09 63 35 b4 3f
       -0.07529929550593369 0.07893961888776249
000020 f5 2e ab 09 72 0a bb 3f 23 60 ac e0 b6 6b be 3f
       0.1056281350712956 0.11883109078587543
000030 b9 c1 dd 37 0f 1a af bf f9 ed ff ab c2 1a b2 bf
       -0.0607456927963343 -0.07072083186351809
000040 07 e5 a7 5e a1 a5 c1 3f 89 3e 4b 46 3a b2 9b bf
       0.13786713716380225 -0.027047071972275325
000050 8c eb 53 42 fd 79 b6 3f c4 78 73 0c 1e 78 aa bf
       0.08779890889483805 -0.05169767286291596
000060 54 92 57 ec 31 40 a2 3f 68 c1 ee 6d 02 8c bd bf
       0.0356460190776359 -0.11541762527372657
000070 f1 db ac 82 3b a6 c6 3f 11 ad 22 7a f1 90 c2 bf
       0.1769480121672298 -0.14504831756253414
000080 cd 17 d7 c6 4e 0d 3f 3f 1c ce 63 54 84 8e 65 bf
       0.0004738156629538998 -0.002631433922141614
000090 f6 a3 6f 77 ff 22 bd 3f 94 52 37 0b 90 6d bb bf
       0.11381527582092574 -0.10714054368811282
0000a0 c7 24 20 6c 11 af cc 3f e8 c5 be a3 64 ac 88 bf
       0.22409265307968537 -0.012047563788516194
0000b0 a2 8d 86 56 10 3a c0 3f 5f 1c b0 b9 1a 2b a8 bf
       0.12677196717150446 -0.0472038604421463
0000c0 27 aa 03 eb c0 fe a0 bf 18 6d 94 2c c0 50 c3 bf
       -0.03319361561610306 -0.15090181519267598
0000d0 0c b6 b0 66 1a 20 a8 3f bd 0a 5b d4 e6 fd c3 3f
       0.04711992744010382 0.15618596428801892
0000e0 0f 71 5e 45 46 bd cd bf 1c 94 7b 80 33 2a cc bf
       -0.2323386992183107 -0.22003787778444994
0000f0 c5 3f 8e 0d 97 32 b3 bf 05 8f 39 5d 82 c4 c8 3f
       -0.07499069291065925 0.19349698593133993
000100 11 4c 08 91 ff 4f b9 3f 9f db ac f3 b1 09 a9 3f
       0.09887692728834475 0.048902092929373746
000110 9d 46 7d 52 9d 9d bc bf da 61 9a 59 ea 7b bd bf
       -0.11178000701809272 -0.11517204940390205
000120 00 9e 1f 61 58 80 c2 bf 7d a2 0a 74 63 92 d5 bf
       -0.14454178564413667 -0.3370598443239386
000130 98 eb c2 aa a0 17 a3 3f 5b 92 ee 83 dd c6 c0 bf
       0.037289639325044976 -0.13106888715732876
000140 5e b1 e2 51 4c ae ae bf 98 e2 d3 35 c8 20 b8 3f
       -0.059923539157668 0.0942502147116876
000150 a3 fa d4 82 c2 65 d1 3f f6 8d 55 3a 5d 68 bc bf
       0.27183592583234367 -0.11096747087645284
000160 2d 5a 07 fc 77 61 b5 3f 33 a8 c2 17 fb 7c c4 bf
       0.0835185041717998 -0.16006411228346593
000170 29 38 68 40 e6 f5 b1 3f d6 ff 0f 32 fd e4 ca 3f
       0.070158377384559 0.21011319107492338
000180 bb 06 88 e7 5e 6d b6 3f a3 1e c3 ca 79 b0 93 bf
       0.08760636475201526 -0.019227889061567038
000190 2c 10 5b a3 11 f0 c8 bf e6 dc ac 98 11 59 88 bf
       -0.19482632137635514 -0.011888635131624924
0001a0 14 3c f2 46 d6 1b 96 3f a7 e2 9c fa 47 1b 8b 3f
       0.021590564804281412 0.013235628448101734
0001b0 c0 89 d1 c7 67 6a b1 3f 6e 2e f3 b7 a0 bc b7 bf
       0.06802986744290873 -0.09272198191609402
0001c0 74 99 4e 42 a3 24 ba bf 68 fd 16 7e 8e aa aa 3f
       -0.10212154740165663 0.052082493678876685
0001d0 e7 91 4e 2c 72 65 b3 3f ba f0 73 9e 66 b9 9f 3f
       0.07576669294082415 0.030980685635754603
0001e0 c1 4e 9c a8 32 9c 9a bf 5a 5a cc d1 d4 fa a8 3f
       -0.025986472645924467 0.04878869114888991
0001f0 1d 3a fc 01 67 40 ba 3f dd 20 68 c8 f2 8b a8 3f
       0.10254520224064163 0.04794272133227804
000200 f0 10 27 a0 7a 21 b9 bf 22 f2 19 22 df e7 87 bf
       -0.09816709909415855 -0.011672728756132737
000210 4e 24 b9 e7 73 1f b0 bf bb 3a bf 24 9b 26 ba bf
       -0.06297993094735085 -0.1021515812601405
000220 23 8d e1 b9 7f 26 bf bf be ab 84 94 54 f9 ba bf
       -0.12168119705306828 -0.10536697984632235
000230 0b 5c c9 91 2f b0 cd 3f 81 ec 03 7f 7c 5a cd bf
       0.23193926447376642 -0.22932392312927521
000240 cf ed cf 6f 32 f3 a0 3f 90 eb bc 22 51 fc b1 3f
       0.03310544600386899 0.07025630090804058
000250 a9 0c e5 a2 70 dc c6 3f 08 71 fc 69 5d 79 d4 3f
       0.17860229448169676 0.3199075255413537
000260 bd 98 78 91 5f 57 b5 3f 38 59 4f 2d 94 34 c7 3f
       0.08336446095981649 0.18129207813644554
000270 95 82 60 1d d1 67 8f 3f 15 30 6f 24 3c c9 c7 bf
       0.015334733685507454 -0.18582870272655386
000280 75 6e 8b 65 7c 51 cb 3f 44 b2 2c 7a 6f 49 a3 bf
       0.2134242530654437 -0.037669643081561094
000290 d2 da 17 7e 03 30 ac bf 50 14 37 69 44 c9 cc 3f
       -0.055053815023645605 0.22489218842943837
0002a0 ea 22 65 46 f0 ee c7 bf 69 e3 2a b3 c6 eb c2 bf
       -0.1869793266034983 -0.14782031773008988
0002b0 01 66 02 6c 98 4a b6 3f c8 20 2f 71 9e 56 9d 3f
       0.08707573544452175 0.02865073743649374
0002c0 7d f6 8c 54 05 b6 b1 3f 41 b1 bf 1b dd 0a 9f bf
       0.0691836673185779 -0.03031487924447274
0002d0 33 1e eb 99 21 95 a5 3f f6 c7 df 5f a5 e5 b7 3f
       0.042153406180258556 0.09334786978413931
0002e0 f7 14 bb 3e f9 13 a8 3f ae 86 a1 5b 5c c9 a3 3f
       0.047027386577193235 0.03864563578168877
0002f0 28 19 5d d7 1b 02 7e bf d5 a9 73 3b fd 11 b0 3f
       -0.007326229815424669 0.0627744932313939
000300 ed a9 ff 98 4f 1b c2 bf 00 b8 e2 ba ef 0d d2 bf
       -0.14145846338881488 -0.28210061312245216
000310 cd 14 54 74 3b ab 98 bf f4 21 ec c2 b0 18 bf bf
       -0.02409069917213884 -0.12147049673888671
000320 9d 04 f4 9e b4 c6 d1 bf 54 ea bc 26 19 1d c4 3f
       -0.27775302431843746 0.1571380080366277
000330 05 68 5e a1 1c 0f 92 bf e2 2b fc 62 db 65 bd bf
       -0.017635772084396723 -0.11483546415926996
000340 8f 23 49 35 c6 79 d5 3f da d7 bd ff 74 d9 cd 3f
       0.33555751041108633 0.23319876181966387
000350 9b ea 44 fb 69 90 d3 3f 78 88 cf 8c 5a e2 ae bf
       0.3056893304634884 -0.06032069176559757
000360 87 3c b6 4f 2e 70 9f 3f 02 d6 52 a6 6d 6e b1 bf
       0.030701373687005897 -0.06809125242838124
000370 89 c9 56 0a c5 af b3 bf 82 5c de 6a cf 89 75 3f
       -0.07690078260819723 0.005258379196582232
000380 e7 7a c4 8a a6 d6 b6 bf 59 d1 e0 9c 34 9d c5 3f
       -0.08921280753973414 0.1688600317007836
000390 e6 bd e7 1b 31 f3 bb 3f 7f f6 d7 ae 19 a5 91 bf
       0.1091795628669768 -0.017231370255095243
0003a0 e1 f0 6f de b0 c6 cc bf 55 00 6f 6c 02 0f bb bf
       -0.2248135648841361 -0.10569777629189166
0003b0 05 ed 0d 20 5e f9 c3 3f b9 77 a3 b2 11 4c c7 3f
       0.15604759755283495 0.18200894568047746
0003c0 3a 2c 9e b1 b3 a5 b7 bf 0f eb 5f 37 05 6c a7 bf
       -0.09237216078160851 -0.045746005067448185
0003d0 3c b2 a0 32 66 c9 5a 3f a8 34 6f 05 5c a3 c4 bf
       0.001634931375984596 -0.16123533501960208
0003e0 4c bb da 4f 49 e2 c5 bf ec fe 95 c4 56 49 64 bf
       -0.17096821211949942 -0.002476376980382491
0003f0 91 45 4a 96 0d d8 e2 3f bb 70 ba 5d 04 60 b0 3f
       0.5888736663202271 0.06396510399139547
