pj1/part1/model/classify/b12.npy (npy, 640 bytes, 1 tensors)

array f8 [64, 1]
000000 37 9e dd 18 d0 4e c6 bf bb b3 b0 cf 7c 63 ca 3f
       -0.1742801782049683 0.20616111889958497
000010 79 f0 26 fd f9 6f b2 bf d1 9b 9b cb 60 56 c7 bf
       -0.07202112608405455 -0.1823235506228387
000020 f0 be 94 2f c7 a7 c3 bf fb a5 b8 ea f6 9e 84 bf
       -0.15355768035214323 -0.010068825758099633
000030 df 57 6f b3 98 a0 c0 bf 81 5b 75 95 4c 1f ab 3f
       -0.12990101586791433 0.05297316860622115
000040 ae 93 d5 57 41 cb c7 bf 90 96 9b 83 b8 1c bd bf
       -0.18589035786422187 -0.11371949399070957
000050 13 31 0d 7f e9 96 94 bf 59 f1 dc 8d 1a a6 bc bf
       -0.020106933955774297 -0.11190954173520619
000060 51 c0 c2 b4 3d 3f c4 3f a0 72 74 1d 39 9a 91 bf
       0.15817996336181975 -0.01718987695959362
000070 85 29 c6 f0 b2 c4 b2 bf aa b7 6c 2f 7b 1b a9 bf
       -0.07331388834260195 -0.04903778985895653
000080 f6 ee b8 04 ef 54 a1 bf 8e e8 64 84 b3 d7 c3 3f
       -0.03385111744543494 0.15502017941054586
000090 27 ec d0 5a 60 d3 cd bf b8 65 0e 4f dc 76 d3 3f
       -0.2330131953657155 0.30412967415176295
0000a0 5a 76 4d c7 dc e5 97 3f d6 6f f3 7a ca a9 aa bf
       0.023337793030228184 -0.052076652058275094
0000b0 f2 a2 db c3 db 22 a7 bf 13 4d 3f 8c 18 5c 7f 3f
       -0.04518782392353228 0.007656188859942919
0000c0 c9 0f 3d c9 23 0b ac bf 69 0f 42 9d cc 86 c0 3f
       -0.054772489848374635 0.12911374739280326
0000d0 c5 c1 84 d7 c9 6d a2 bf 1b 02 41 3f b8 16 a5 3f
       -0.035993869360371224 0.04118896267073443
0000e0 b4 40 84 f2 20 ce ba bf 96 a7 6a 10 2b d7 c5 bf
       -0.10470777436080675 -0.17062891294090993
0000f0 ae 1c cd e6 f2 90 c4 3f 2c d8 66 00 69 d7 ce 3f
       0.16067348737326398 0.24094879645935074
000100 2a e3 ee f3 08 d3 c1 bf 06 6b ac 36 37 d4 c0 bf
       -0.1392527762489178 -0.13147630853276143
000110 40 72 2d 5d f5 cf ae 3f 52 7e 12 06 ea d6 cf 3f
       0.060180347084245245 0.24874615952011198
000120 11 53 bc 69 98 8f a5 3f 46 da 5c 33 c2 67 a5 3f
       0.04211117068022053 0.041807240266667864
000130 3f 87 3b be 77 30 d5 bf 4f 69 b9 7d 8e 78 bb bf
       -0.331083236478765 -0.10730829781951921
000140 9a 0b 27 3e 23 44 ce bf e6 b0 d0 1b 26 9c b1 3f
       -0.2364543965796571 0.06878889254648221
000150 fa b2 7a 2f 6d 95 ca bf 32 2b 27 66 4e ef c3 bf
       -0.20768513506245495 -0.15574054706515877
000160 2d 83 b8 51 7d 10 c2 3f 82 86 44 40 08 47 cb bf
       0.14112822046538423 -0.2131052316481608
000170 c1 dc 87 e2 ff c7 b2 3f 0d 65 6d 03 bd 66 cd 3f
       0.07336425095114675 0.2296978251204468
000180 2a ff 96 bb f2 ae c8 bf 18 cb 0a 22 8e 5d b1 bf
       -0.19283899459514348 -0.06783378916842897
000190 15 99 8d b9 08 a0 9a 3f 77 97 7c ad 3f ba ab 3f
       0.026001106572402472 0.05415534012563133
0001a0 53 52 e0 89 bf 1d ce bf 13 ff de 6e b3 7b cf bf
       -0.23528284294356414 -0.24596255220057425
0001b0 f2 ef a5 7b fd 27 c1 bf 08 a6 c6 75 bc f3 cb 3f
       -0.13403290307530785 0.2183757376745208
0001c0 e0 b0 cf 2e df 67 c3 bf da e7 51 78 e6 1f a6 3f
       -0.15160741601665162 0.043212129771702926
0001d0 b6 d0 f4 e2 ab 43 a2 bf 87 fa 7a 60 e1 fe d0 3f
       -0.03567254205191388 0.26555666372215864
0001e0 23 05 61 c7 ee ca c0 3f 98 d5 80 75 6c d6 b1 3f
       0.13119301543523773 0.06967809551937021
0001f0 f2 77 5a 63 ab 0d a1 3f 87 b0 ba 3b 34 25 c3 bf
       0.033307414892291734 -0.14957287708728392
