pj1/part1/model/classify/w01.npy (npy, 802944 bytes, 1 tensors)

array f8 [784, 128]
-0.07446999914585939 -0.17023876255691672 -0.0817216535255002 -0.27137078052408853 -0.04279785478233173 -0.11123784943814528 -0.024788694247124547 0.14721228477583023
-0.04069482522290846 0.0673607646303837 -0.1499977560745541 0.1783974160202798 -0.15594168917677084 -0.2261124989897488 0.1226237262346567 0.19525720486672338
0.04339664717379863 -0.13550929865322983 0.20925378178737533 -0.2273495097742619 0.14226333582836495 -0.2434057337021696 0.07223521879714731 -0.07676161480342522
0.29014342892277134 -0.14081559225180543 0.036829175436395425 -0.18419956774119098 -0.11578598025223542 0.09224247893047209 0.34599999937805725 -0.0732910311979099
-0.049664479056281415 0.36174234649659526 0.2647869329331012 -0.07982365717328392 -0.3662832157108798 -0.026402445932712727 0.05779378816545103 0.08804139879147337
-0.16303048263508435 0.003847307616867299 0.18189008555188554 0.04081151137272041 -0.1355360663830312 0.24668125538387065 -0.2172678717013246 -0.12289281797590067
0.038080575374639256 0.25332753647518924 -0.08198054079599422 0.06471787943107563 -0.029592235375452764 0.10558924139610251 0.010989492028349552 0.2530885038446705
-0.058087005220601666 -0.08880371499276149 -0.26530956629945557 -0.24971604161962527 0.018295935419493894 0.3360304197279494 -0.04122580135514156 0.031690935961927534
-0.24382854776880797 -0.036454478215123376 0.02139451257315447 0.0022234199865916065 0.019982852820343705 0.07111351360138203 -0.0013279722421930416 -0.12052394169763268
0.06785542425530265 0.1142766861554955 -0.32766842290705506 0.1490009713228668 -0.2093114005387194 0.021645333082886152 0.11981805905250449 0.021981131316139785
-0.0665467320404509 -0.11871359137541074 -0.07988929936283723 0.11878956079627577 -0.006280645823547903 0.11002767210420089 -0.2987304051701965 0.2359917597012698
0.2585672451024905 -0.1123481345806994 -0.02449240748307854 0.03152985435866157 0.4579039719115496 -0.16269218679867856 0.14903295678069897 -0.10131438421685628
-0.10063843948646431 -0.10781602492222145 0.05967967920303967 -0.0017555046682225625 0.18849189296721836 0.17196929768689517 0.1850161521168562 -0.053303157572309856
0.11510383412263701 0.24711374193318095 0.01797039269913294 -0.1840849475332943 0.24933326679459217 0.00987700139429156 0.06795479962237252 -0.09832378824406883
-0.042004462327557335 0.2253243523260362 -0.11403644476517248 0.09096904482623305 -0.014333942844887412 -0.19173307899913156 0.033504714669623986 0.04577069377913462
0.2938172997166895 0.033103008428843186 -0.14612407974069117 0.22252282042750368 0.09913942129094873 -0.15168690156464001 -0.08398821199516457 0.04345170155528426
-0.08960869029845013 0.0651687839240809 0.12540151150074239 0.21122597650556799 -0.49561876706578256 -0.13030769463589148 -0.1015537175350963 -0.07252911446812531
0.15479382335980382 -0.03642564888202011 0.13825304365386 -0.14816134842017148 -0.2833669254737759 -0.03336974842836367 -0.2888319043239002 -0.16182011044752612
-0.07959492907529206 -0.07627216730877269 0.01596887439605513 0.154684674949797 0.22062281515509197 0.03649401516187749 -0.05541629143720412 0.011059282098605504
0.08567830394748915 -0.07615402483807765 0.0004153905662089268 0.035371402985260834 0.02756966874288887 0.06576676494238999 -0.06463721171084366 0.24496767594643204
0.12244028234295731 0.03221454069242299 0.03649053311999731 0.14472016511507013 0.0027088682361199982 0.19483016103968592 -0.04653555512446528 0.29361717279747046
0.04096921920943834 -0.01747986800507339 0.08440895733138294 0.11841675453883416 -0.03576476057660562 0.05013613393307119 0.22112271361305258 0.215293807927415
0.12614008601193252 0.04713178427718812 -0.048133037309044495 0.12431733067412068 -0.14430436917667874 0.08282282527608226 -0.06841465003248895 -0.2551175502853177
-0.019916413368440584 -0.0184767118734709 -0.044706225711325216 -0.013959976153682527 -0.32096081027529205 0.0038680318884093184 -0.06254559924529558 0.0022542108352863006
-0.102561414181196 0.12498877857481572 0.09102223553332676 0.17700339282232264 -0.014940172200430146 -0.1079512860520759 0.01813323238020544 0.1166117512798713
0.25487543539178814 0.009011581210593048 0.10400217163069614 -0.043651279601507026 -0.15009308766623902 0.004438466609139031 0.14622383972180716 0.006929279247995608
0.1316453710008356 0.11976743094186112 0.10018954893099916 -0.17132301085725937 -0.1239116717154214 -0.14280919085030694 -0.10671620088727606 0.11720149157044724
-0.28006039478337924 -0.005701886067353504 -0.08621777542258555 -0.11087147811817843 0.16408652577312854 0.03410871523506878 0.11276007131268027 -0.14840028691570464
0.09561459200014089 -0.35579076804868626 -0.07626572285462996 0.16885290336773273 0.08522830391818757 -0.19112114482332304 -0.15128958853785643 0.10975937421986856
-0.38077062950690466 0.10502749532815743 -0.005911241941370033 -0.029707929816973063 0.21383755994907166 -0.2597578937290515 -0.20898188168495474 -0.10324568146420623
0.01872241533351085 -0.1282264564269566 0.12095275629159051 0.08219659359991172 -0.07991476059153775 -0.03412313019458947 0.11099818711161524 -0.04548192044978662
-0.012346598886063632 -0.05623875182272028 -0.07288824343274682 0.054627214901552604 0.12338301253351044 0.06273321795860202 -0.30547087218157143 0.02951564564779999
00000000: 5857 dd42 7710 b3bf 84c3 d83e 62ca c5bf
00000010: 785e 44d5 b5eb b4bf 9738 dc8c 235e d1bf
00000020: b915 42b5 99e9 a5bf 6709 6a6d 157a bcbf
00000030: d163 681c 3562 99bf a33f 5726 dad7 c23f
00000040: c0cc e5be f3d5 a4bf 3bfd 1e19 8e3e b13f
00000050: e323 6860 2033 c3bf bcbe bffd b9d5 c63f
00000060: f771 8cb3 e5f5 c3bf e35b 301e 41f1 ccbf
00000070: da39 e4bd 4464 bf3f 6000 9b26 30fe c83f
00000080: 0d2b bcd8 1538 a63f 997f 0263 5e58 c1bf
00000090: 15a9 abf2 d3c8 ca3f b7fc 9eea c919 cdbf
000000a0: a1be 665b af35 c23f 2a71 f448 eb27 cfbf
000000b0: 2e68 5ade 017e b23f 763a 2b31 a6a6 b3bf
000000c0: bcd8 97be b591 d23f 1583 becd 3e06 c2bf
000000d0: 2270 1310 46db a23f 5160 b1f7 d993 c7bf
000000e0: 71c6 8466 26a4 bdbf cfef 4efe 339d b73f
000000f0: 6aaa 6f2e dd24 d63f a7cb 1576 33c3 b2bf
00000100: 59a3 a362 9f6d a9bf cdfe f15e c926 d73f
00000110: acc5 56e4 44f2 d03f 7ba1 01bd 526f b4bf
00000120: 0553 2328 2f71 d7bf adfa 4227 3e09 9bbf
00000130: d445 2abc 2597 ad3f 8be3 8090 e189 b63f
00000140: b09a 95cf 2ede c4bf 7a0e 8c8c 6384 6f3f
00000150: 1bbc 74a0 2c48 c73f 4dd6 4a15 3fe5 a43f
00000160: d194 45ee 3e59 c1bf 3079 345a 4093 cf3f
00000170: 12e0 b601 6fcf cbbf 87a9 1e5a e775 bfbf
00000180: eea1 b113 4c7f a33f 7094 15b3 8436 d03f
00000190: 758f a03d adfc b4bf 0e79 9fd7 5991 b03f
000001a0: 45c7 9c4c 6d4d 9ebf ca0f 9b82 e507 bb3f
000001b0: 0a2d e4a6 a881 863f 5a69 c01f 9a32 d03f
000001c0: 3779 7d77 94bd adbf 463f a81b d7bb b6bf
000001d0: 609d a4f9 d4fa d0bf 9d7c 05fc b1f6 cfbf
000001e0: d716 1b71 2bbc 923f 2155 ccbb 8581 d53f
000001f0: 34b9 2459 8c1b a5bf e37c 125b cb39 a03f
00000200: 26c5 3f1b c635 cfbf f011 744f 29aa a2bf
00000210: f721 436f 71e8 953f 25fc 1584 d936 623f
00000220: d86a 608d 6276 943f edb9 38c7 7e34 b23f
00000230: c7eb 6956 ebc1 55bf 9ff1 f933 a8da bebf
00000240: ff60 081c f95e b13f 0aad bba5 3c41 bd3f
00000250: 2d55 14fa 84f8 d4bf 87b4 73bd 7612 c33f
00000260: 6b33 ff49 b7ca cabf 16df ceb6 312a 963f
00000270: b5c7 1975 65ac be3f 4511 87c0 3882 963f
00000280: 2ff8 c4e5 3409 b1bf 1250 8c90 0364 bebf
00000290: 3c51 1008 a073 b4bf c7e8 b91e fe68 be3f
000002a0: 66f0 8e06 bcb9 79bf a4b1 5705 c62a bc3f
000002b0: 79b7 2122 661e d3bf d26e 055d fa34 ce3f
000002c0: 800c 62a1 5d8c d03f 026c caeb d8c2 bcbf
000002d0: b77d 8fa4 8914 99bf 48dd a25a ae24 a03f
000002e0: 1364 0476 4c4e dd3f dfb9 cefa 18d3 c4bf
000002f0: b91b b30d 8313 c33f 1366 d34e bdef b9bf
00000300: 4e99 50d6 70c3 b9bf ca91 06bd d499 bbbf
00000310: 065e d3bc 558e ae3f 32d9 d4c8 1ec3 5cbf
00000320: a07b ed99 8020 c83f 589b bd06 1703 c63f
00000330: a56d 49f9 9bae c73f b0dc 172d 8d4a abbf
00000340: 7770 33e3 7177 bd3f 9562 ff4f 6ca1 cf3f
00000350: 2697 c1a3 d466 923f 2cb2 ab76 1890 c7bf
00000360: ce03 5809 27ea cf3f abaa c4af 643a 843f
00000370: 9afc fb59 7c65 b13f bf56 ed6e bf2b b9bf
00000380: a841 f7df 9b81 a5bf 58c9 1daa 6dd7 cc3f
00000390: ef8a d110 7e31 bdbf 921e 7a50 bf49 b73f
000003a0: 78a4 ee3d 1d5b 8dbf 766b eea3 b58a c8bf
000003b0: 2c23 89ab 8727 a13f f810 cba1 416f a73f
000003c0: c10f 5213 e7cd d23f 92c2 33a5 e0f2 a03f
000003d0: 8b7a d29f 31b4 c2bf 8bc6 2cb6 a07b cc3f
000003e0: b561 307c 3361 b93f 4fd1 b9f4 796a c3bf
000003f0: 96cc c45f 4080 b5bf 0660 452a 4d3f a63f
00000400: a3ec 445a 98f0 b6bf 728c acc3 e6ae b03f
00000410: 43e0 611f 280d c03f 291b 94ea 7309 cb3f
00000420: 4c35 f5c6 37b8 dfbf 6a6c 702b ecad c0bf
00000430: c5b7 99a7 6cff b9bf 1300 a69e 4491 b2bf
00000440: 1701 7ab4 48d0 c33f 4922 5ef5 61a6 a2bf
00000450: c76b 8896 46b2 c13f 9479 ff78 f3f6 c2bf
00000460: 5163 6b07 af22 d2bf 3ae4 59f4 d615 a1bf
00000470: 0f34 c7cf 387c d2bf 9986 1a79 85b6 c4bf
00000480: 264a 4e51 5560 b4bf 0dac 2fa0 9286 b3bf
00000490: 09d4 2305 255a 903f c106 0d1a b5cc c33f
000004a0: 70d9 eb4f 5e3d cc3f 966f 3df3 57af a23f
000004b0: e9db c62e 865f acbf 792c 72b7 3fa6 863f
000004c0: 0464 6e69 03ef b53f a068 2386 d47e b3bf
000004d0: e07b 9de5 1839 3b3f 0b17 1256 331c a23f
000004e0: 95f4 7226 393b 9c3f 695e 9738 17d6 b03f
000004f0: 7617 6776 108c b0bf be2e 62ce 195b cf3f
00000500: 0e42 6010 3f58 bf3f 7b90 759d 6c7e a03f
00000510: 545d ba1c e3ae a23f 54d7 1ebc 3086 c23f
00000520: 9843 778f e830 663f 7a4d f8d8 31f0 c83f
00000530: a0b8 b81e 82d3 a7bf 2a62 adae 9fca d23f
00000540: d65c 4be1 eaf9 a43f 7e45 ae15 3ee6 91bf
00000550: c54d 3a4f d39b b53f d0f1 0a78 8f50 be3f
00000560: 8234 0d3a c24f a2bf 164b 2e7f 71ab a93f
00000570: 8477 afc3 bf4d cc3f cb2e 0a5c bf8e cb3f
00000580: 6d64 11bc 5b25 c03f 6132 2540 a821 a83f
00000590: dff0 32ba e4a4 a8bf 0a45 92b5 42d3 bf3f
000005a0: c751 24c9 9078 c2bf fc4f ec6d e033 b53f
000005b0: 82f2 745c 9f83 b1bf da1b c78f d853 d0bf
000005c0: 72c6 48e0 f764 94bf e4ca ef24 8feb 92bf
000005d0: 3129 b702 bce3 a6bf d298 4348 0c97 8cbf
000005e0: c785 db35 9f8a d4bf ce42 bdce d9af 6f3f
000005f0: 996b 4407 fd02 b0bf d663 1b3a 6c77 623f
00000600: 1760 bdff 7641 babf 9887 58bc 43ff bf3f
00000610: ff0e d3b4 3b4d b73f 2ef9 b913 0ca8 c63f
00000620: 20ca faf7 f398 8ebf 6ea1 270b b2a2 bbbf
00000630: f5cc 2ca0 8491 923f 968a 138a 44da bd3f
00000640: 78ef e30e e14f d03f e88e adf4 a974 823f
00000650: d8e7 dde5 e29f ba3f 0c51 a2e4 7559 a6bf
00000660: 8aea 7013 4036 c3bf eee6 e3ce 112e 723f
00000670: 2f17 c078 76b7 c23f 2273 143c e061 7c3f
00000680: ef26 8f69 c1d9 c03f 766f 050f 14a9 be3f
00000690: 1e44 0fb4 05a6 b93f 4693 5794 e9ed c5bf
000006a0: b144 9ce1 acb8 bfbf e398 2252 9247 c2bf
000006b0: b7a3 c3c0 c051 bbbf c865 56bd ea00 be3f
000006c0: 33f7 1f6f 82ec d1bf 43f2 f462 dc5a 77bf
000006d0: d61c c63d 5e12 b6bf 48a6 93bc 1262 bcbf
000006e0: e875 f48a c900 c53f c4ea e290 b276 a13f
000006f0: 9724 9512 d8dd bc3f 518e 82d5 c7fe c2bf
00000700: 8836 a9a9 327a b83f 9838 3fa4 46c5 d6bf
00000710: 5068 7781 2686 b3bf 9c47 e6d0 f89c c53f
00000720: 8fac 05aa 85d1 b53f 628d 4b5d a876 c8bf
00000730: ef68 7f0d 755d c3bf ae29 b4ba 3019 bc3f
00000740: 749b 40c6 8b5e d8bf a57f 9df9 14e3 ba3f
00000750: ee22 12ed 6236 78bf 2fa9 fb6b c16b 9ebf
00000760: 3aa0 5177 075f cb3f 756c 9c92 df9f d0bf
00000770: da8e a515 ebbf cabf 428d 5719 4f6e babf
00000780: c8fc 3c06 f82b 933f c7f9 6a7a b969 c0bf
00000790: 1729 a284 c2f6 be3f 68ae 5a01 d60a b53f
000007a0: bd54 3533 4b75 b4bf 8221 7240 9678 a1bf
000007b0: f046 8f8f 606a bc3f 323f c801 6849 a7bf
000007c0: 94b4 7573 2c49 89bf 1b61 b15f 53cb acbf
000007d0: 0979 cecd cda8 b2bf 0a8d f22a 19f8 ab3f
000007e0: 6ea0 b673 0796 bf3f 034a 81bf 480f b03f
000007f0: e6a0 79b3 d58c d3bf e949 1c73 5939 9e3f
