pj1/part1/model/classify/w12.npy (npy, 65664 bytes, 1 tensors)

array f8 [128, 64]
000000 69 b5 4d 28 a3 d6 9b bf 2c 11 f1 41 64 8b b1 3f
       -0.02718596395009368 0.0685331974974061
000010 6c dd 2c 44 72 db e0 bf 4a 68 1d 1a 3e b6 b7 bf
       -0.5267878848598406 -0.09262455117769366
000020 82 e1 bb 21 44 fd 9b bf e0 43 e1 37 4c 4f c0 bf
       -0.027333321150736285 -0.12741997459900656
000030 93 a8 28 d6 08 59 ba bf 92 e3 77 99 f8 d1 b2 bf
       -0.10292105892645713 -0.07351640459809364
000040 8e 64 00 fd 8f ed 83 3f 9c 95 47 32 7c 6b d4 bf
       0.009730458172315683 -0.3190603724491099
000050 12 7e 70 05 4c 3c d0 bf 60 54 97 78 2f 6d cc 3f
       -0.2536802342528698 0.22208207500685528
000060 d5 ef 0a dc 7e 2a d0 bf bb de 83 12 4e 47 a1 3f
       -0.2525937222342212 0.033747138748308335
000070 5a 69 b1 72 2d ce c4 3f c4 39 f1 26 52 25 ce bf
       0.16254203891987623 -0.23551394368628398
000080 e3 13 61 84 4e 3f c9 3f 72 62 74 3c d3 06 23 3f
       0.19724446739033316 0.0001451619011525632
000090 cf bb 91 da 8f d3 c0 3f 79 e5 c6 bd 78 5f d7 bf
       0.13145635769202932 -0.3652021268167896
0000a0 61 59 f0 1c 50 ea cc 3f fb c8 07 7a 5d 4b c4 bf
       0.22590066350012264 -0.15854996164814125
0000b0 22 f1 ef 03 7c c1 c5 bf 52 aa 72 2e 98 4c c1 3f
       -0.16996717636346498 0.13514997737850593
0000c0 ff 1a 56 83 a5 b8 b4 bf 16 c8 85 73 91 a3 c6 bf
       -0.08094248253301471 -0.1768667043757552
0000d0 15 f3 25 83 e4 15 ba bf 13 d2 82 c4 ca 62 b1 3f
       -0.10189655496465051 0.06791369722015643
0000e0 2b c3 13 77 b9 dd bd 3f 34 87 74 60 ac 7c ad bf
       0.11666449696691632 -0.05759180715018744
0000f0 0c c4 9b c0 79 48 ca 3f d0 b6 e7 39 59 8b c4 bf
       0.20533677963933916 -0.1605025799503239
000100 16 cd 71 45 f0 51 82 bf ec b6 7d 24 ff 1b a5 3f
       -0.008945347899703065 0.04122922249267255
000110 9b cd f9 5b b6 17 ca bf 81 21 cd 37 93 4a d5 3f
       -0.20384864321713966 0.3326767010626313
000120 c1 3d 1e 79 ff 35 a2 3f 02 18 b7 fc 9b 84 87 3f
       0.03556822160237117 0.011483400964504401
000130 3a b3 41 d8 52 d9 bf bf 58 b5 d4 4d 78 db cf 3f
       -0.12440984515860701 0.2488851909669545
000140 5f 32 fb f3 e2 1e c3 bf c9 72 16 7a f1 ab 73 3f
       -0.14938008225580554 0.004802649754677099
000150 48 04 46 43 72 54 89 3f 13 9c 46 65 98 13 c1 bf
       0.01236809985926092 -0.13341050095661497
000160 ad 35 0d d4 92 9e c1 3f a9 91 34 2a 61 a3 b0 3f
       0.13765178064424557 0.06499297409442896
000170 d4 24 0e 2c 65 6f 7f bf 9e b0 df 2d f6 65 a3 3f
       -0.007674594119529494 0.0378872805593755
000180 ac 75 b0 25 bc 5a cf bf 46 08 16 d6 52 85 b8 bf
       -0.24495651092813142 -0.0957843563719801
000190 11 e7 dd 5a c8 93 c2 3f 2c 8a 13 af 41 f4 b6 3f
       0.1451349681554395 0.08966455959629432
0001a0 f7 59 b0 75 36 60 9e bf 46 e7 3e 0d 6e 7e 90 3f
       -0.029663897450598466 0.016107291754202245
0001b0 30 08 fa 7a 43 14 cb bf f4 cb 10 97 93 36 cd 3f
       -0.21155589585038248 0.22822804332972135
0001c0 11 23 6f 01 9f 18 9c 3f c3 e2 a7 b1 1e db 86 bf
       0.027437672102482106 -0.01116012553846824
0001d0 ad 33 f3 02 20 83 c4 3f 00 81 af bb 34 d0 b4 3f
       0.1602516188053448 0.08130197126547856
0001e0 9e 26 18 4a cd ce b9 3f a2 e7 0e 8e f5 ac 71 3f
       0.10081179675048665 0.004315337370764201
0001f0 1c 22 de 0b 13 63 ca 3f 2d b7 01 9d dc 56 cd 3f
       0.20614851073720863 0.2292133108743938
000200 f9 4a 8a 50 18 7b ba 3f 34 21 80 b2 2d 4c c5 bf
       0.10344078031839023 -0.1663872834763055
000210 15 0b 4f 4c 4d 7b c1 3f c5 c2 1b f4 f7 bc b3 3f
       0.13657537675870715 0.07710218152693489
000220 24 70 9b 27 fa 18 c1 bf 39 cd 4a cf 11 4d d0 3f
       -0.13357474264091806 0.2547039532029945
000230 e0 5b cf c1 f5 e4 c5 3f 51 8d 4f d5 77 d5 bd bf
       0.171049804338252 -0.11653851468832001
000240 b0 74 dc 0c d1 72 d0 bf 94 1f 2b e4 20 f8 92 bf
       -0.2570078492734167 -0.018524660040185006
000250 b8 21 a8 a1 aa cc c5 bf f8 a1 d7 50 97 66 a0 3f
       -0.1703084267940207 0.03203270780415218
000260 3b 8d 5c 3d 7f 46 b0 3f 46 5e 16 2f fe 6e c2 bf
       0.063575699311106 -0.14401223468006402
000270 4e 2c d2 fd c2 28 c4 3f 18 c8 4d 6c a4 d5 b3 bf
       0.15749394792178112 -0.07747867244850715
000280 c5 a6 c5 21 cf 1c c2 3f 07 a5 9b 99 d7 fa d5 3f
       0.14150418423678537 0.34343519211559265
000290 ba 69 e8 68 a0 32 bd 3f a7 f2 1a 4c 53 7d 8d 3f
       0.11405375062205439 0.014399195442245839
0002a0 21 07 a8 67 d5 d2 d1 bf 96 b7 18 de 11 54 c1 3f
       -0.27849326250735557 0.13537810654218835
0002b0 a6 5e 23 5d b2 8b cb bf a5 56 70 b7 0d 6e d0 3f
       -0.2152007059837519 0.2567171374697444
0002c0 d1 cc 9c 07 65 af b1 bf 99 fd a3 b6 73 00 d7 bf
       -0.06908255992748315 -0.35940258823389964
0002d0 45 d0 30 cb c2 72 a8 bf b1 69 f8 d5 b8 55 c9 bf
       -0.04775055628161388 -0.1979285282876169
0002e0 bd e6 61 85 55 41 5c 3f 4b b4 80 af 3c 44 ac 3f
       0.0017245612303028867 0.05520810739867751
0002f0 0e e9 a0 4d 74 70 a2 3f d8 3f 06 f1 2d d8 7e 3f
       0.03601420829405032 0.0075303835477739875
000300 93 dc ff 57 47 b2 9c 3f a3 d8 06 2d e8 fd 68 3f
       0.02802382921796871 0.0030507597623126866
000310 dd b6 cc 3b c2 7d d1 bf 3d 54 d7 5b 38 70 9e 3f
       -0.2733007034283739 0.029724960904634157
000320 9b 11 28 4a e6 d5 a4 3f 1e b1 1c 12 b5 e0 6f 3f
       0.0406944242022604 0.0038913284814922197
000330 d7 c5 76 ee e6 8a b9 3f 59 60 c9 af 21 31 b3 3f
       0.09977572748063977 0.07496843854585346
000340 c2 84 8d 4d b1 00 ca bf a0 2a ec 04 fe 20 ad bf
       -0.20314613615759042 -0.056892335987943854
000350 5e 8b a0 fe 80 7e 95 3f 79 42 7d 74 5b b8 d0 3f
       0.020990386525351006 0.2612522733298089
000360 5f 51 23 51 3b c1 b2 3f e7 70 41 28 ba 18 bd 3f
       0.07326098185450779 0.11365855677417223
000370 f9 fc 9c 97 75 10 b0 bf 0b e5 a8 8b cc e4 be 3f
       -0.06275114966864583 0.12067869577085248
000380 ad 8b 33 e8 7d e0 c7 bf 27 ca 5c 82 31 88 a5 bf
       -0.18653844678837342 -0.042054698146234686
000390 1b bd 7f 98 ef 7a bf 3f 26 d5 dd 51 95 f6 8f bf
       0.12296960328216182 -0.015607039032810532
0003a0 0d b4 cf d8 20 be b0 bf d0 a0 c4 0c e8 e3 c8 3f
       -0.06540112775083191 0.1944551527351508
0003b0 d9 92 ce 25 8f e9 d4 bf 0f fc e3 a1 28 8f d2 bf
       -0.32675532047350725 -0.28998771485925173
0003c0 83 47 ea 6b a7 f2 b3 bf a1 03 c7 49 2a 6a bf bf
       -0.07792135605475718 -0.12271370221334489
0003d0 2d 34 51 4d e2 e6 d3 bf 63 3d f4 0c 1a 6f b1 bf
       -0.31096704054363294 -0.06810152832280418
0003e0 8e 21 78 5a aa 7a af 3f b5 4a 44 43 d3 94 bd 3f
       0.06148273805962666 0.11555214302306178
0003f0 bb 03 6b 1a 5b fc a8 bf 24 07 92 91 8c 13 be bf
       -0.04880032250867524 -0.11748579553571098
000400 ab fe ad f7 36 54 c5 3f e2 93 14 b4 ed 82 c9 bf
       0.1666325291989684 -0.1993081216143358
000410 0d 18 82 15 9a 07 c5 3f 07 94 fd 7a 40 48 d5 bf
       0.16429449129299237 -0.33253490458292884
000420 41 b4 af ab 34 48 c0 bf 7e 06 30 dc c5 df cd 3f
       -0.1272035444557407 0.23339150668475733
000430 7d a3 5f b9 09 6c b0 3f fd 05 15 3f b0 c3 c1 bf
       0.06414852882120488 -0.13878443794423836
000440 76 ce 7e 34 1c a6 c0 3f 40 85 2e 9c fe 06 d8 3f
       0.13006928027390402 0.37542691471215406
000450 99 65 bd 29 f0 6a cb bf cc 22 d4 a2 69 2c d6 bf
       -0.21420099294736586 -0.34646073247180875
000460 6d 6a 53 02 7c 93 cf 3f 33 3f 0f 96 50 23 b7 bf
       0.2466883670193342 -0.09038261092723303
000470 82 8c 61 f3 a3 97 c2 bf bf db 0d bc 39 7f c3 3f
       -0.14525269874420493 0.15232011492090966
000480 20 16 31 ab e6 4d c8 bf b1 c6 b9 38 5b cf b0 bf
       -0.1898773513695895 -0.06566400656609052
000490 ec 23 44 9b 80 29 d3 bf ef 2f 19 50 5c 8e ba 3f
       -0.2994081035872671 0.10373475032355349
0004a0 55 56 0a e7 9c 2f bc bf 8a 16 86 fa 60 96 d2 3f
       -0.1101015152038028 0.29042839493954686
0004b0 d3 3c e1 da 03 a6 ac 3f 86 d3 cf 7e b4 6c b8 bf
       0.05595409438012102 -0.09540870758048756
0004c0 4e a6 54 1b 0b 14 c5 3f 34 6d f0 19 ad e2 cc bf
       0.1646741755915166 -0.22566760794220786
0004d0 c9 37 55 77 95 b9 c8 3f cd 57 d4 3f b7 b3 cb bf
       0.19316356970597173 -0.2164219915072735
0004e0 7d 22 6d 40 0d 24 d4 3f a2 0f 4f c8 fd 86 b8 bf
       0.3147004250682029 -0.09580980434753752
0004f0 85 fb 1a 5f b6 d6 d7 3f 6a 46 8f 99 1a 89 98 3f
       0.37248000419270283 0.02396050989393076
000500 e9 08 29 d4 9e a9 c3 3f e8 5a 80 d9 3c a6 b4 3f
       0.1536139045657088 0.08066158590404948
000510 39 40 b6 a9 a8 aa b7 3f f0 17 e3 e7 10 53 b6 3f
       0.09244779723508224 0.08720498715692293
000520 5c 3e 59 ca b5 8a b5 bf 9e 2e 12 83 aa b0 d1 bf
       -0.08414779844428594 -0.27640784072785063
000530 be e0 91 c5 dc a1 c7 bf 87 c5 9c b5 b0 94 c1 bf
       -0.18462714812245012 -0.1373501669673198
000540 8f 3d 4c 46 e8 92 d2 bf 73 31 75 9a b4 81 84 bf
       -0.290216511392793 -0.010013018573453469
000550 91 b5 75 c3 51 c3 d5 bf 9a 06 41 f8 9d ab d2 3f
       -0.340046349409783 0.2917246746402299
000560 97 07 c7 4e 36 1a d8 bf 0f 11 8f 83 2d a0 4d bf
       -0.37659986203299795 -0.0009041044460152153
000570 cb 41 5a c4 96 ec b5 3f 21 c8 60 5b e2 bc ca 3f
       0.08564131063236073 0.2088892885381606
000580 1c 61 4a 3d 8f 0c bf 3f d9 0a 15 5a ed c1 d0 3f
       0.12128539320326975 0.2618363742550805
000590 9d 2e 87 b9 28 95 84 3f 70 8e 8d f5 b7 da d7 bf
       0.010050123369089997 -0.37272452335148554
0005a0 80 c3 7e 79 7b 2b c5 3f 99 46 21 93 4f de c7 3f
       0.1653894751775873 0.18647188839036202
0005b0 5e 08 a4 be 68 05 d9 3f b0 cb 04 e0 68 81 cb bf
       0.39095514886151317 -0.21488676966108988
0005c0 d8 6b 23 46 f2 44 cb bf b1 eb cc 46 51 03 b9 3f
       -0.2130415766212923 0.09770687082793363
0005d0 75 ec 0a 9e 68 df d5 3f 95 24 14 9f 48 5b ce 3f
       0.3417607825646834 0.23716075675500706
0005e0 a6 4f bd 15 c8 e7 82 bf 06 70 8e 2f a0 59 c8 bf
       -0.009231150783001695 -0.1902351600846261
0005f0 f6 d6 50 e9 bf a6 c3 3f 7b 6a 6c 6a 8d a7 79 bf
       0.15352629558918068 -0.006263306050437674
000600 fc 59 54 0c 21 03 a5 3f 6f 83 83 84 2d 9e d7 bf
       0.04103949809557503 -0.3690294069365824
000610 78 6d da 18 2c de b3 bf 6d 6a 3e 42 46 86 d3 bf
       -0.07760882956283932 -0.3050704619323941
000620 ef 02 ab bc 3f 3c 94 3f cb 8e af f2 2f c6 c2 3f
       0.019761081591016468 0.14667319631472817
000630 49 93 9b 49 ee 8d b7 bf 60 97 88 4d d5 3a d6 bf
       -0.09200944230140097 -0.34734089442860316
000640 1d 72 1c e6 64 eb ba bf 1d 98 60 6d db bb be bf
       -0.10515432947108434 -0.12005397243828538
000650 94 bc 78 ee a9 e3 c7 bf 9e f6 1a 95 be 60 d2 3f
       -0.18663524765131412 0.287154813395185
000660 2b 04 1e d0 99 ab 93 3f 67 be 72 cf 13 b6 c0 bf
       0.019209292724102916 -0.13055656079585562
000670 e4 38 93 68 4e 45 93 bf 48 ff 86 99 75 52 bf bf
       -0.01881906998897244 -0.12235198019243143
000680 4d 66 45 66 45 2a 6e 3f d8 00 de e6 32 31 64 3f
       0.0036822658022799605 0.002464866082789379
000690 89 bd 7c 94 10 ca ba 3f c6 62 d7 06 9c 13 c7 3f
       0.10464576363732737 0.1802859338192972
0006a0 e6 53 de b3 0a 82 d2 bf 8e 11 6b 6c e0 d5 d4 3f
       -0.28918712201385544 0.32555399501532
0006b0 16 0b 42 60 19 28 c6 bf 3a 2b fd e5 43 a9 96 3f
       -0.17309872818085442 0.022130070602808895
0006c0 3b b6 ac de e2 67 c1 3f bc 1e 24 27 77 93 88 3f
       0.13598285553728026 0.012000018007270234
0006d0 86 89 1b 7c ce 81 cd 3f a2 55 58 5e 48 3a c0 bf
       0.23052388248386196 -0.1267786465329382
0006e0 1f ef 88 bc 36 3f b2 bf 02 40 1c 41 18 1e a6 3f
       -0.07127706625845719 0.04319835467151735
0006f0 d6 ac d0 0f 7d 09 bc 3f cf ab 1e 39 ee 2a c3 bf
       0.10951978336440801 -0.14974763669064692
000700 3e 92 f2 a7 d1 fc ba bf c2 3f 82 af 8b 37 cc 3f
       -0.10542021131784282 0.2204451186157695
000710 ef b3 89 ca 62 5d cb 3f cf 58 61 44 51 47 c6 3f
       0.21378741159006107 0.17405143584136915
000720 31 1d d2 f7 40 c8 b5 3f 81 64 33 d7 ca f7 ba 3f
       0.0850868802100322 0.1053435111420118
000730 e0 fc 3c 00 fe a4 d2 bf 11 0a 49 23 49 43 af bf
       -0.2913203241659641 -0.061060224110878754
000740 fe bc 54 b6 4a 2f be bf f2 6b da d7 ad ff a6 bf
       -0.11790911628189701 -0.044919426535862686
000750 52 54 7d 59 10 d3 b9 bf 33 55 8e 24 3a cc b8 3f
       -0.1008768290024176 0.09686625854950108
000760 6e dd e4 88 f3 f6 bf bf a9 77 0d 62 ea 33 bf 3f
       -0.12486192791117443 0.12188591855871657
000770 ce 7b 16 03 3e 92 aa bf 28 d4 0c a6 8c d3 91 bf
       -0.051896989705020866 -0.017408559451002642
000780 37 86 bf 50 85 0e c4 bf 5c 83 4d 45 5f 8b d5 3f
       -0.15669313853054387 0.3366316010270134
000790 5f d8 45 e0 3b ef c4 bf f0 54 76 a6 2c a6 c3 bf
       -0.16355083895513453 -0.1535087406925082
0007a0 67 fb d1 32 74 9e d1 3f 41 fa 83 04 90 dd cc 3f
       0.2752962585727147 0.22551155300603123
0007b0 34 45 72 7f cb d7 b6 3f fc 25 96 85 7b 1f 93 3f
       0.0892302690647469 0.018674783733819908
0007c0 37 29 f0 4f 91 34 bf 3f 79 c4 0b 9a 6b 57 c2 bf
       0.12189586831678843 -0.14329285642410008
0007d0 b2 bf f9 78 48 76 92 bf fe 8e 25 41 8a d3 d1 3f
       -0.01802933920265532 0.2785363804052706
0007e0 72 e1 45 ca d9 71 d6 bf 1a a8 d0 11 34 f7 d7 3f
       -0.3506988978692994 0.3744630979514355
0007f0 40 27 a7 94 eb a2 42 bf 37 17 8b 0a be c7 d3 bf
       -0.0005687380119578714 -0.309066305443014
