pj1/part1/model/classify/w23.npy (npy, 6272 bytes, 1 tensors)

array f8 [64, 12]
0.47705618000912503 0.3694909485283526 -0.7330685186664568 -0.9089297949961239 -0.025960075131396882 0.3922857637045471 -0.20080555986489265 -0.08338192733577213
-0.4518916517863715 0.08955538209774266 -0.10885733940354093 0.9124808980634022 1.128261741622149 0.8126118370887987 0.3323418072166938 -0.06555783707786436
-0.5185585026558532 0.41670165160581246 -0.2846479831719563 0.22844338744842835 -0.27941878893836114 -0.2523964526967596 -0.6971855882212378 0.6965719156346029
0.02354016225980956 0.011873648066494324 0.10437749233743364 -0.4020984674774198 -0.026855224349117184 0.40043442181434213 0.5497556340347621 0.26614365699211606
-0.20223482948837837 -0.2055893938825793 0.25549375842308425 0.024939901457864875 0.8290099565407374 -0.24555897738655516 0.44623085086921166 -0.5325024048860467
0.7924821825523608 0.7598238104991568 0.2975157779914372 -0.5589607585897657 -0.3272910441752221 -0.7669691295036086 -0.545292462203797 -0.7007753659440318
-0.5659466504866111 0.38281956323091576 0.8477495808518353 0.31271582006941856 -0.9081630646907651 -0.9158931817258359 -0.5538172149883461 0.3646307880216568
0.7764857916296424 0.06339292871208556 -0.39742158931029065 0.327827764474437 -0.9527759165048207 -0.03824281608264752 0.30005775335019746 0.08891482592289429
-0.7389500141071936 0.35706334939461876 0.19841217809547543 0.4154916841061252 -0.12579012706004156 0.20489777597278813 0.8514927793301212 -0.18191017989190847
0.686064083078628 -0.008494640970048277 -0.6334139312888941 -0.2047986348382068 0.0016646887145140652 0.4637952228462719 -0.15646741577558151 -0.8665008613189823
0.03035728575755682 -0.2407978261680899 -0.4529191075995177 0.9389981624940211 0.8005807245729901 -0.5462744038049242 0.563189838631191 -0.585766713841268
-0.7438117476032283 0.017543835141163543 0.6284299621394208 0.07548033735822345 -0.6154715058096206 0.20860981265475118 -0.6120480145109547 0.4412135387373906
-0.15079306705456066 -0.11785025998341728 -0.0008421541467037751 -0.04864437355162876 0.300480639675376 -0.11788366786387898 0.0601125657812868 -0.3083696504683095
-0.06192767465102781 -0.27874281840664994 -0.08770312890348923 -0.14847580411980843 -0.28401634809365833 -1.3109782096279599 -0.785522702451215 0.8898970173759909
-0.10058361081245443 0.7777040973311652 0.4088337223886239 0.35338857085109016 -0.43182610556574874 -0.5637594301910767 0.4987123244417137 0.31767667415973844
0.4251775692134867 0.20450766351155775 -0.518872293145976 0.6987298367569708 0.5628261509710367 -0.2776808179159567 -0.3629874146157499 0.4187020962382946
0.5032103866816469 -0.6149494650660761 -1.1145261173950705 -0.5640535504377843 0.001922106841495432 1.0940718379170429 1.084510100035874 0.4775371010166958
-0.463862055848012 -0.5033292444652137 -1.066743879575177 0.3174631802195083 -0.28793313857664476 -0.6159515427636223 0.037943846184548595 -0.11391154202365732
-0.23138310531231987 -0.6138178476958525 -0.1528079743714516 -0.13093784938013772 -0.3212272996487121 0.6171713715969833 0.15492015708913454 0.5270954704795238
-0.519244606996518 -0.8307497833959459 1.0703105650058917 0.30192808977204977 0.9813832154893884 -0.29462055821120947 0.005198894850076882 -0.7409304435967038
0.708091762973374 0.11620921583785333 0.6608202839646568 0.17079911461453035 -0.28939619634732716 -0.5891292327053691 -0.5765591644859341 0.32382293939056006
-0.42567368401141004 -0.8468054460026488 0.08784448259700194 0.13947256300720434 0.42993855015214244 0.9314931073050213 0.12920173588164774 -0.46355471648309743
-0.15144635328965472 -0.18867885860516162 0.299851354965798 -0.0014941695673953577 -0.4469005072809339 -0.5896374884283628 -0.44090659669389765 1.111222168978457
0.16693751435675086 -0.1722869387531397 0.7727907832180633 0.36609330298694415 -0.11886980495059955 0.5180675496422681 0.32539923309009894 -0.38639849822234057
0.39593629049794243 -0.1507066916422066 0.19593358176928438 -0.6115366654814735 0.22284463779285316 0.7788814768003012 -0.4227974623106057 -0.6320449522768421
-0.09937442978137855 0.016495173926846747 -0.38648712246334416 0.7998338289019904 0.6585857769709033 -0.0743068539851925 -1.1753897020029083 -0.07023008179884997
0.6927342221087424 -0.1041047024129299 0.31539781047006726 -0.45190385279218404 0.20395578923512467 0.6282277378339662 -0.4503418260624994 0.13285389760956373
-0.19192940759463664 -0.4819992857238176 -0.06320610156106699 0.8930670312765281 -0.9529871807663811 -0.2945262774467666 0.09711738979184206 -0.36508241004145625
0.644251232503403 -0.040307233486275004 0.36429520983383007 -0.2646547090622783 1.1606505017054278 1.1493913872943258 0.012420316010698979 -1.2921817197003367
0.9052931243360738 0.42517003185650726 0.16105278529533928 0.08435559076039964 -0.36744650319362376 -1.3852924018695947 -1.5595938551111 0.3361121044596508
0.5919676894496841 0.27301214858422007 0.7172011126811743 -0.19836990474083557 -0.477650787118372 -0.3069219886132522 -0.18874109466855 0.673515875726169
0.08266336265447767 -0.4680550208929563 -0.6301286914056747 0.3239864364118746 -1.005305110657852 -0.2632138053080161 -0.5548202951756894 0.7446610046232702
00000000: bf9b dfa4 1688 de3f 103a 065d bda5 d73f
00000010: 81c9 2c1c 4c75 e7bf 6ac9 fbef f315 edbf
00000020: 45a3 c326 4795 9abf d308 73bf 351b d93f
00000030: 73c2 3c20 ffb3 c9bf 120e fc9a 8458 b5bf
00000040: 3281 70f6 caeb dcbf 0464 4afd 19ed b63f
00000050: a9f3 aa18 13de bbbf 5306 ed23 0b33 ed3f
00000060: a985 192f 5c0d f23f a071 148a ea00 ea3f
00000070: 0eb6 4592 1645 d53f daf4 3efe 65c8 b0bf
00000080: 1e07 3f00 0898 e0bf 7d83 7567 3dab da3f
00000090: 6623 a62c ac37 d2bf de0a 0a07 a23d cd3f
000000a0: 3a34 1858 ffe1 d1bf 2660 7d73 4327 d0bf
000000b0: 3de3 9426 584f e6bf 5cce 9e2f 514a e63f
000000c0: d693 318c e91a 983f 20d8 0911 3651 883f
000000d0: cf1b 07bc 7bb8 ba3f 4d95 e535 fbbb d9bf
000000e0: ce8c 3999 ef7f 9bbf 3da8 78b2 b7a0 d93f
000000f0: d312 9f20 9997 e13f 2c6a b467 7f08 d13f
00000100: 65e2 61b5 d4e2 c9bf 72a8 90d5 c050 cabf
00000110: e797 307e 025a d03f 490a 8274 d889 993f
00000120: c0d3 6ce3 3f87 ea3f 8fa6 8e00 7a6e cfbf
00000130: e4c4 bcd7 0b8f dc3f 8adc c07b 420a e1bf
00000140: f333 1798 035c e93f 821c 1a06 7a50 e83f
00000150: 1f1a 219e 7f0a d33f 1d7e 3cac 01e3 e1bf
00000160: bb66 c022 56f2 d4bf 8b4e 08d8 028b e8bf
00000170: c175 7d2d 0973 e1bf 394e d275 c06c e6bf
00000180: 14dd 6326 3c1c e2bf 6121 16a0 1d80 d83f
00000190: 579a 9eba c320 eb3f 52f5 0837 8903 d43f
000001a0: e305 c9fc ab0f edbf 098a c437 ff4e edbf
000001b0: a3c6 4ae1 deb8 e1bf 00bc 6a5f 1c56 d73f
000001c0: 9c74 1bbb f8d8 e83f 8fb6 9ddb 843a b03f
000001d0: 7df8 33f6 5a6f d9bf 25dd c84d 21fb d43f
000001e0: 8bbf 39eb 237d eebf 398a c3f8 8f94 a3bf
000001f0: a638 636f 2534 d33f b4e6 773d 1fc3 b63f
00000200: 2803 ff7f 7aa5 e7bf c901 103c 20da d63f
00000210: 3d2b 06fc 9165 c93f b5ba bf6e 6a97 da3f
00000220: d4f7 f010 e419 c0bf e0c2 691f 173a ca3f
00000230: b418 00c9 6d3f eb3f 17fd b830 d548 c7bf
00000240: cc0d f9a9 3cf4 e53f c9cd 4269 a365 81bf
00000250: 51ee f64a ed44 e4bf 33a1 7277 d736 cabf
00000260: a815 8fe5 3546 5b3f f99b 8a28 d2ae dd3f
00000270: 2ba8 d2d0 1f07 c4bf 7d44 aa03 60ba ebbf
00000280: 249c 18f6 fa15 9f3f d97f 2b92 76d2 cebf
00000290: 56e6 b76c a0fc dcbf 2c4f dddf 450c ee3f
000002a0: d02a bb77 5b9e e93f 517d 5f75 147b e1bf
000002b0: 1389 4bb2 a605 e23f 8d13 e1d5 99be e2bf
000002c0: 61c4 4a4b 4ecd e7bf 63fa b5d8 02f7 913f
000002d0: fde3 e626 191c e43f 67d2 71ec ad52 b33f
000002e0: 6b4f a24c f1b1 e3bf 3309 7df1 b9b3 ca3f
000002f0: 4700 bdb7 e595 e3bf 497d dbb5 d73c dc3f
00000300: 6d3f bbed 2f4d c3bf 2231 7444 6f2b bebf
00000310: 1e1d 5742 8098 4bbf 50ca 1353 eae7 a8bf
00000320: 5f29 1f26 133b d33f 0b38 35c2 9f2d bebf
00000330: f5f2 3700 13c7 ae3f 23c8 f50e 54bc d3bf
00000340: 45de aff2 fbb4 afbf 9a4a 431e ecd6 d1bf
00000350: 4bb9 6556 b673 b6bf 808f 7851 4101 c3bf
00000360: 03dd a5e7 522d d2bf 78ee 8149 c4f9 f4bf
00000370: 6a64 a981 0023 e9bf a902 4e4f 097a ec3f
00000380: 4cfd f3f6 d8bf b9bf ef14 00b4 f3e2 e83f
00000390: 2e4f caea 542a da3f a77a a518 eb9d d63f
000003a0: 1ab1 3df6 09a3 dbbf c06e 6f37 510a e2bf
000003b0: 1fb7 e518 e7ea df3f c2f5 8d8b d054 d43f
000003c0: e0f0 b0fa 1b36 db3f 3221 489f 4e2d ca3f
000003d0: 8999 3b11 9a9a e0bf 1a8a b3ac fe5b e63f
000003e0: 1722 f8fc ab02 e23f 753c ebc3 85c5 d1bf
000003f0: 5c97 a890 2f3b d7bf 340c 87e0 03cc da3f
00000400: 18c4 39ab 4c1a e03f 04d9 2480 aaad e3bf
00000410: b5fe 8b56 19d5 f1bf c555 0a08 ba0c e2bf
00000420: 6f54 8381 e67d 5f3f c440 b578 5181 f13f
00000430: 4d5f 3d43 275a f13f 2893 dfc5 f78f de3f
00000440: 0c3e ee79 eaaf ddbf c326 83ee 451b e0bf
00000450: 9cbc bf07 6211 f1bf 3986 2e16 5151 d43f
00000460: cbc3 671d 7f6d d2bf 67e5 8202 e0b5 e3bf
00000470: 0fe9 e434 606d a33f dbe7 a08b 4e29 bdbf
00000480: 40e8 142b f69d cdbf e2c0 b153 65a4 e3bf
00000490: 6e27 3f32 368f c3bf d3b8 724a 92c2 c0bf
000004a0: 0ab6 a4f2 fc8e d4bf 102b 212d debf e33f
000004b0: a831 1878 6cd4 c33f 8789 f251 f7dd e03f
000004c0: d494 b5dd a69d e0bf 8c07 db91 8095 eabf
000004d0: a737 94f8 fd1f f13f 2424 d431 ca52 d33f
000004e0: 0ad9 ebc5 7d67 ef3f 2ac5 8f2f 10db d2bf
000004f0: a3e8 b3b5 6f4b 753f c779 fbc2 b3b5 e7bf
00000500: 3934 910e b0a8 e63f 5d73 841d e3bf bd3f
00000510: 1b2c 8594 7025 e53f cc42 bad1 bedc c53f
00000520: 1682 b99f 7785 d2bf cdc9 728c 25da e2bf
00000530: 33a3 7534 2c73 e2bf 8421 98d9 83b9 d43f
00000540: b232 e6d5 3c3e dbbf 88fe 14bc 0719 ebbf
00000550: bf5e e3db f97c b63f 2c12 67a8 3cda c13f
00000560: e05b 0cfb 1c84 db3f 2f62 0aa2 cace ed3f
00000570: 905b 19b7 ae89 c03f a6e4 cc66 e1aa ddbf
00000580: ac1f 3d17 9862 c3bf 83f0 93fb a026 c8bf
00000590: 2952 cfbc c330 d33f 4618 4e5b 007b 58bf
000005a0: 4e98 d595 049a dcbf e473 2970 4fde e2bf
000005b0: 5c05 594d d037 dcbf 7da4 a5e5 90c7 f13f
000005c0: a0a2 515e 355e c53f 1b81 bc97 7f0d c6bf
000005d0: 3f4c 92bc b3ba e83f 4f44 e79a 126e d73f
000005e0: 3ba6 be64 406e bebf 01a3 da65 0294 e03f
000005f0: 3bfd 104e 57d3 d43f 71a9 45c4 c0ba d8bf
00000600: f83e bf2a 0557 d93f 0f21 f25b 5b4a c3bf
00000610: 5e90 f102 5a14 c93f bf87 5157 b591 e3bf
00000620: f562 b44f 2c86 cc3f c428 cad8 98ec e83f
00000630: 8d2c 5d16 1d0f dbbf 7a30 f455 b639 e4bf
00000640: 3f3c f845 9a70 b9bf a205 3b62 1ce4 903f
00000650: 9088 d37b 34bc d8bf d2ca 2b1d 3d98 e93f
00000660: c96c b67a 2213 e53f 2d2c bc23 c605 b3bf
00000670: d885 a26e 65ce f2bf c37e 8540 99fa b1bf
00000680: 95dd 98f5 e02a e63f 382d 3914 9ba6 babf
00000690: 85bb 4c4c 7a2f d43f ee71 2b23 feeb dcbf
000006a0: 1720 4c2a 391b ca3f 78fb 8d0e 711a e43f
000006b0: 1466 bd85 66d2 dcbf ea89 b044 5b01 c13f
000006c0: 2d3b 6190 2491 c8bf 1944 3888 13d9 debf
000006d0: b0c8 1c6b 462e b0bf eefd 8e4f 0194 ec3f
000006e0: 5bc3 dcf8 de7e eebf 3693 5cbe 84d9 d2bf
000006f0: 7262 076d afdc b83f 4444 de9c 825d d7bf
00000700: 5950 c0c2 b49d e43f 7648 3b53 26a3 a4bf
00000710: 37d9 14db 9c50 d73f 8ee9 094e 1af0 d0bf
00000720: a892 ae42 0692 f23f 2fbb 2b39 e863 f23f
00000730: dd53 9398 d26f 893f bba1 29bd c6ac f4bf
00000740: ac25 4a49 29f8 ec3f d007 845d fc35 db3f
00000750: f4f7 e2ae 609d c43f 1ef9 8cf7 5398 b53f
00000760: 4fc1 8f56 3e84 d7bf ced5 965d 282a f6bf
00000770: 71ea abaf 18f4 f8bf 7269 1c58 dc82 d53f
00000780: d633 4f39 66f1 e23f 601d 65f2 0779 d13f
00000790: c3da 73bf 4ff3 e63f dfae af5e 2f64 c9bf
000007a0: 9140 659b d491 debf d919 e11f 9ca4 d3bf
000007b0: ea9e 810e ab28 c8bf 1095 722a 718d e53f
000007c0: 9da9 2d17 6d29 b53f 9faf dd0b 9df4 ddbf
000007d0: 0e7a 3ba5 032a e4bf 3524 2f9b 31bc d43f
000007e0: 266f cccf ba15 f0bf 3ed5 69b7 7ed8 d0bf
000007f0: 0ff9 dd7d 16c1 e1bf 96d4 ae50 43d4 e73f
